RCA/Models/CQL_DFW_Cont_sample.pth (torch, 59864 bytes, 6 tensors)

head.weight f4 [100, 32]
000000 1a 39 e1 bd 12 f5 4b be 1b 4e 16 3e fe bb a5 3d
       -0.109972194 -0.19917706 0.14678232 0.08092497
000010 28 81 e3 3e 32 20 e8 3e a5 d4 0c 3f 71 19 28 3f
       0.44434476 0.45337063 0.5501197 0.6566382
000020 3d b7 2b 3f 69 5a 13 3f 89 90 07 3f 31 78 12 3f
       0.67076474 0.5755983 0.5295492 0.5721465
000030 af 2e 81 3e c1 1e ca 3e 68 0d 0b 3f d2 f9 7f 3e
       0.2523093 0.39476588 0.5431733 0.24997643
000040 91 49 e1 3e b6 ed a7 3e 0c 9d 24 3f 8f 9b 13 3f
       0.4400144 0.32798547 0.64302135 0.5765924
000050 3b b9 01 3f fa a2 aa 3e 90 d4 68 3e c8 a6 f0 3b
       0.50673264 0.33327466 0.22737336 0.0073441006
000060 a7 6b c7 3e ed 39 be 3d 54 9f 95 3d 29 ad fa be
       0.3894932 0.09288392 0.0730578 -0.48960236
000070 7d 47 d5 bb 6f 27 c0 be b2 65 21 3f 2c 16 f9 3e
       -0.006508766 -0.37530085 0.630458 0.48649728
000080 8a e0 47 3d 6e 2d 49 bd 78 9c 4f 3e 66 c6 d8 3c
       0.04879812 -0.04911559 0.20274532 0.026461791
000090 73 57 f8 3d c5 ce 01 3f 16 32 d9 3e 2b 77 ba 3e
       0.121260546 0.5070613 0.42421025 0.36419043
0000a0 ea df 1e 3f 0f a0 26 3f 48 f9 c3 3e aa f7 ec 3e
       0.62060416 0.6508798 0.38276124 0.46282703
0000b0 e7 1b b8 3e 82 c3 90 3e 6f 76 86 3e 8b 42 86 3e
       0.35958788 0.2827416 0.26262233 0.26222643
0000c0 b5 f7 ae 3e 34 d3 32 3e aa 54 0f 3f b0 41 01 3f
       0.3417336 0.1746338 0.5598856 0.50490856
0000d0 02 bb 25 3e ac 1b 45 3e 0e be cc 3c 45 4c 27 3d
       0.16184619 0.19248837 0.024992969 0.04084422
0000e0 56 93 07 3d f9 c0 69 3e a7 c4 48 bc 75 d0 c1 3e
       0.033099495 0.2282752 -0.012253917 0.37854353
0000f0 25 44 e1 bd 7d 46 d3 bd b7 c7 fc 3e 8b b6 0b 3f
       -0.10999326 -0.10316179 0.4937112 0.54575413
000100 70 0a fb bd 2e 03 89 be 9f 0b cc bd 7a e8 c6 3c
       -0.1225785 -0.26760238 -0.09963154 0.024280775
000110 de 74 8c 3e c8 fc 07 3f 87 eb ea 3e 8b 5d 23 3f
       0.27432913 0.5312009 0.45882818 0.6381461
000120 ef fe 15 3f 97 6f 30 3f 4c d9 ef 3e b6 7b 12 3f
       0.5859212 0.6892027 0.46845472 0.5722002
000130 72 93 06 3f 4c b9 b6 3e 81 5e 20 3f f3 d7 15 3f
       0.52568734 0.35688245 0.626442 0.5853264
000140 20 82 e8 3e 14 c8 22 3f 14 b1 0b 3f 2b 60 1e 3f
       0.45411777 0.63586545 0.54567075 0.6186549
000150 13 c2 90 3e 37 7a eb 3e 33 ca a5 3d 49 7a 20 3e
       0.28273067 0.4599168 0.08095207 0.15671648
000160 29 fb 6f 3e ea ef 9d 3e c0 0b 91 3e d9 96 3e bd
       0.23435654 0.30847102 0.28329277 -0.04653058
000170 66 33 d1 3d 1f 7b 86 be fe 8a 1c 3f ec 76 30 3f
       0.102148816 -0.2626581 0.61149585 0.6893146
000180 fc e3 c6 3b 64 35 4e bd df 3c 0a be 8c a0 12 bc
       0.0060696583 -0.050343886 -0.13499783 -0.00894941
000190 cf 54 95 3e 97 4e 9a 3e 23 0b 13 3f 10 38 54 3f
       0.29166266 0.30138084 0.5743887 0.82898045
0001a0 ce 6f 11 3f 01 d5 26 3f 2e 64 e5 3e e4 03 3f 3f
       0.56811225 0.6516877 0.44802994 0.7461531
0001b0 d3 88 0c 3f ae 83 9b 3e 7e 32 ec 3e 70 6a e9 3e
       0.5489628 0.303739 0.46132272 0.45589018
0001c0 e3 f0 11 3f f3 2d 1e 3f 78 ca 20 3f 9c d9 30 3f
       0.5700819 0.6178886 0.6280894 0.69082046
0001d0 19 8f 02 3f 10 a3 8d 3e b7 35 e5 3d 5f 5d 82 3d
       0.509996 0.2766347 0.11191886 0.063654654
0001e0 bc 57 fa 3d e3 de 47 3e 87 a4 8e be 95 62 56 be
       0.12223765 0.19518618 -0.278599 -0.20936044
0001f0 2a 21 4c be b7 16 35 3d dd 99 27 3f 8f 2d d0 3e
       -0.19934526 0.044211116 0.6546915 0.40659758
000200 d9 c3 3d be a0 a3 0b ba f1 1c a8 bd f4 de 56 3e
       -0.18531741 -0.0005326811 -0.08208645 0.20983487
000210 e6 7d b9 3e 30 80 e5 3e 4e dd ea 3e 3b d6 03 3f
       0.36228865 0.44824362 0.45871967 0.51498765
000220 3d d2 2c 3f 2c bd fb 3e 5e 3c 14 3f 47 dc 34 3f
       0.675083 0.49167764 0.57904613 0.70648617
000230 73 3f ae 3e 8a ec f9 3e a7 96 ec 3e 5d ea e3 3e
       0.34032783 0.48813277 0.4620869 0.44514742
000240 86 88 e8 3e 2a 13 24 3f 15 b0 d3 3e 7c 28 0c 3f
       0.4541666 0.6409174 0.41345277 0.54749274
000250 60 4d 11 3f c0 ea e6 3e eb 2d bb 3e 89 80 f9 3d
       0.5675869 0.45100975 0.3655847 0.12182719
000260 80 bb b7 3d 17 9b 3f 3d 2e 34 19 be 0f d6 8e 3e
       0.0897131 0.046778765 -0.14961311 0.2789769
000270 28 d8 67 3d 81 98 e2 bd db ae be 3e 6e eb 0b 3f
       0.056602627 -0.11064244 0.3724278 0.5465611
000280 48 7b 23 3c 2f 62 55 bd 0f 2b 41 3b 46 99 38 bd
       0.009978123 -0.05209559 0.0029475128 -0.045068048
000290 c3 dd 70 3e a4 9e c5 3e 04 35 09 3f fa c1 e6 3e
       0.23522095 0.38597596 0.5359652 0.45069867
0002a0 de 7f f3 3e b4 3a de 3e ba ff f5 3e 74 92 07 3f
       0.47558492 0.43404162 0.48046666 0.52957845
0002b0 af c9 db 3e 71 01 fc 3e 76 9e 86 3e 6e 29 63 3e
       0.4292731 0.4921985 0.2629277 0.22183773
0002c0 88 ad d6 3e 54 84 1f 3f f4 51 0a 3f 2f d7 11 3f
       0.4192927 0.6231129 0.540313 0.5696897
0002d0 1e eb ed 3e 29 15 a5 3e 44 eb 28 3e c2 ca de bd
       0.46468443 0.32242706 0.16495997 -0.10878517
0002e0 3d aa 69 3e 79 25 29 3e 90 44 9d 3e 76 84 8f be
       0.22818847 0.16518201 0.30716372 -0.28030747
0002f0 e3 41 0b 3e 1d 1c be 3c 1e b4 b1 3e 10 79 29 3f
       0.13599353 0.023206765 0.3470773 0.6620035
000300 d8 85 f6 bd b4 21 68 be 9d e6 5a 3c 5a 3d 70 3d
       -0.120372474 -0.22669107 0.013360647 0.05865226
000310 5d 30 81 3e d1 43 a5 3e 3e 4f 70 3e 24 40 19 3f
       0.2523221 0.32278302 0.23467728 0.59863496
000320 13 0c 19 3f b5 74 07 3f ff b9 ea 3e 72 26 f6 3e
       0.5978405 0.52912456 0.4584503 0.48076206
000330 60 e8 bc 3e 36 b1 08 3f 5a 6c eb 3e 41 40 e9 3e
       0.36896038 0.533954 0.45981103 0.45556834
000340 3c 63 a8 3e 8e b1 b7 3e 38 3a 0f 3f 16 f2 c2 3e
       0.3288821 0.3587765 0.5594821 0.38075322
000350 eb e2 a7 3e d0 0a 89 3e aa 4d 81 3e 22 4b 3a 3d
       0.32790312 0.26766062 0.25254565 0.04548181
000360 ed ac 85 3e 4e 7c b3 3e a0 17 a0 3e 46 3c 83 be
       0.26108494 0.35055774 0.31268024 -0.25631922
000370 d5 98 a1 bd 49 43 20 3e 62 42 be 3e f4 f5 11 3f
       -0.078904785 0.15650667 0.3716002 0.5701592
000380 1b 3c 53 be 17 87 b5 be b5 3b 8c bd 9d ac 28 3e
       -0.20628397 -0.35454628 -0.06847326 0.16472097
000390 c9 16 83 3e 6c 71 c9 3e 19 f2 f4 3e d9 b2 2f 3f
       0.2560332 0.39344347 0.47840956 0.68632275
0003a0 f6 db 48 3f ad d7 0e 3f db 66 25 3f c2 98 1d 3f
       0.78460634 0.55797845 0.6461007 0.61561215
0003b0 ed c2 ff 3e 39 df e5 3e fe df ef 3e 51 80 a4 3e
       0.49953404 0.44896868 0.4685058 0.32129148
0003c0 92 01 09 3f 61 25 94 3e 4a 23 c8 3e 85 a4 28 3f
       0.5351802 0.28934768 0.39089423 0.65876037
0003d0 c2 5d cd 3e e8 a5 ad 3e da ff 72 3e c5 9f c3 3d
       0.40110594 0.3391564 0.23730412 0.09551958
0003e0 53 56 c3 3e 68 ab 92 3e e9 ab 5f 3e 57 a2 a3 be
       0.38151798 0.28646398 0.21842922 -0.31959793
0003f0 2a 0b 6a be f8 8d 75 bc 8f 01 cb 3e b7 f7 04 3f
       -0.22855821 -0.014987461 0.39649627 0.5194048

head.bias f4 [100]
000000 01 96 27 3f 4f e7 0e 3f ca c1 d0 3e bb 8c d5 3e
       0.6546326 0.558217 0.4077285 0.4170893
000010 d7 7a d3 3e d1 f9 10 3f 64 68 78 3e f9 fe f9 3e
       0.41304657 0.5663119 0.24258572 0.4882734
000020 56 2e 0f 3f 0f c7 5b 3f 0a dc 25 3f 9c 38 08 3f
       0.5593008 0.85850614 0.6478888 0.5321138
000030 f7 cb ab 3e 3b 78 c3 3e 51 84 49 3f 78 93 06 3f
       0.3355405 0.38177666 0.78717524 0.5256877
000040 4c b1 ff 3e 7d 6a 07 3f 47 84 9e 3e 57 59 0a 3f
       0.49939954 0.52896863 0.30960295 0.5404257
000050 4a ce 18 3f d2 6a 1c 3f 17 26 13 3f f2 b5 10 3f
       0.5968977 0.61100495 0.57479995 0.56527627
000060 39 20 8e bd ba 12 32 3f 4e 5b 0f 3f f7 df 0f 3f
       -0.0693974 0.69559824 0.55998695 0.5620112
000070 34 e5 3a 3f 1f 17 1a 3f 71 46 ae 3e 85 0f 25 3f
       0.73005986 0.6019153 0.34038118 0.64476806
000080 4b 14 0f 3f 17 a9 09 3f ae 6c e0 3e 2b 68 1e 3f
       0.5589034 0.53773636 0.43832916 0.618777
000090 28 54 11 3f ca 69 f9 3e 7b 81 f8 3e ec 72 27 3f
       0.5676904 0.48713523 0.48536286 0.6540973
0000a0 92 c5 fa 3e d0 a4 1b 3f 17 28 12 3f e4 0e 1f 3f
       0.4897886 0.6079836 0.5709242 0.62132096
0000b0 6b 63 1c 3f 4b bd 0f 3f 92 0f 24 3f 4d 9c fc 3e
       0.610892 0.56148213 0.6408626 0.49337998
0000c0 0e 3a 03 3f f2 e8 c2 3e b2 d8 ce 3e db b6 0b 3f
       0.5126046 0.38068348 0.403997 0.5457589
0000d0 57 d4 0a 3f a7 09 c1 3e ce 92 08 3f c7 ca 31 3f
       0.54230255 0.37702677 0.53349006 0.6945004
0000e0 30 a6 ff 3e e4 c2 e5 3e 6a 49 11 3f bb 7b df 3e
       0.49931479 0.44875252 0.56752646 0.43649086
0000f0 98 4b f6 3e da c1 2c 3f bc 91 0e 3f 46 d5 14 3f
       0.48104548 0.67483294 0.55691123 0.5813793
000100 a4 94 12 3f 28 a9 cb 3e 8a 12 21 3f 57 9e 01 3f
       0.5725806 0.39777493 0.62918913 0.5063223
000110 2e da da 3e 23 54 ea 3e 46 a0 0a 3f 33 52 04 3f
       0.42744583 0.45767316 0.5415081 0.51687926
000120 12 31 15 3f 6a 5f f9 3e dc 52 34 3f f4 6f a2 3e
       0.58278 0.48705608 0.70438933 0.31726038
000130 c5 9b ee 3e 0d fe 01 3f 9d 3f 25 3f e5 e2 01 3f
       0.46603218 0.50778276 0.6455019 0.5073684
000140 f3 3d 27 3f 4f b3 ff 3e 3b 84 f6 3e 6d a8 f8 3e
       0.653289 0.4994149 0.4814776 0.48566
000150 58 a4 1c 3f ae 29 15 3f 00 a9 10 3f e6 76 30 3f
       0.6118827 0.58266723 0.56507874 0.68931425
000160 4a 3e cb 3e 56 f2 19 3f 61 bf fc 3e a8 59 0f 3f
       0.3969596 0.601354 0.4936476 0.5599618
000170 8f 42 10 3f c3 ba 18 3f 28 ac fa 3e 4e 47 ff 3e
       0.5635156 0.59659976 0.4895947 0.4985909
000180 42 39 fb 3e 4a bb e0 3e 1c d0 ee bd 4c f8 00 3f
       0.49067122 0.4389289 -0.116607875 0.5037887

ff_1.weight f4 [100, 100]
000000 30 7d 0c bd 67 be 3b 3c 00 8c 81 bc e0 67 c9 3c
       -0.034299076 0.01145897 -0.015813828 0.024585664
000010 67 f8 89 3c b0 b0 a1 bd cd f9 3d bd 13 84 b8 3d
       0.01684208 -0.078950286 -0.046380807 0.09009566
000020 70 58 ae bd 35 07 ae 3d f3 42 6e bc ed 57 81 bc
       -0.08512962 0.084974684 -0.014542329 -0.015788997
000030 15 b2 c6 bd 9f 11 a2 bd 6b cd 88 3d 00 25 ce 3c
       -0.09701935 -0.07913517 0.06679805 0.025164127
000040 77 5f 81 bd ff c2 b3 bd ba 54 81 3d 23 5c 82 bd
       -0.063170366 -0.08777427 0.063149884 -0.0636523
000050 4d 28 9d 3c 17 13 c1 3d 57 af a4 bd da 0a 1d bd
       0.019184256 0.09427469 -0.08041256 -0.038340427
000060 30 05 bf bd 77 4c 15 bd ea af 7d 3d f3 49 d0 3c
       -0.09327161 -0.036449876 0.061935343 0.025425887
000070 2a b8 b0 bd 87 83 64 3d b3 7a b0 3b 80 27 16 3c
       -0.086288765 0.055789497 0.0053857206 0.009164691
000080 ed d3 51 3d ab f5 a3 bd 57 a6 27 3d 60 76 88 bd
       0.0512275 -0.08005842 0.04093012 -0.06663203
000090 7f db bd bd 77 9f 3e bd 9a d8 14 bb 6a 31 45 3d
       -0.09270381 -0.046538796 -0.0022712112 0.048142828
0000a0 fa 00 84 bd c0 d1 9f 3c c0 49 49 3c 23 cb 2e 3d
       -0.06445499 0.019509196 0.01228565 0.042674195
0000b0 ad 4b bc bc c5 d1 93 bd e3 19 80 3d 85 b3 b0 bd
       -0.022985304 -0.07217745 0.062549375 -0.08627991
0000c0 00 37 bb 3b 20 4c fd 3c 6d 99 0a bd b3 bc 94 bd
       0.0057133436 0.030920088 -0.033837724 -0.07262554
0000d0 9d 36 35 bd c5 56 98 bd cd 2b b7 bc 97 d2 68 bd
       -0.044241536 -0.07438425 -0.022359753 -0.05684146
0000e0 1a 64 47 bd e5 1f 94 3d 1d c6 2b bd 30 d6 c2 bd
       -0.04867945 0.07232646 -0.041936982 -0.09513509
0000f0 88 63 c1 3d 7b 12 9f bd a7 62 cb bd c8 01 a6 3d
       0.09442812 -0.07767197 -0.09930926 0.081058085
000100 43 10 77 bd 4a ff 98 bd c3 a7 bd 3d 17 a4 41 bd
       -0.060318243 -0.074705675 0.09260514 -0.04727563
000110 73 fd b9 bc 73 a5 5e 3c 67 36 22 bd b2 ae b8 3d
       -0.022703862 0.013589251 -0.039602663 0.090176955
000120 9a d1 4e bd 0d bf 64 bd b7 82 87 3d 15 9e a8 3d
       -0.05049286 -0.055846263 0.06616729 0.08233277
000130 37 f4 71 bd 73 a8 fc 3c 12 53 88 bd ca 2f 2f bd
       -0.059070792 0.030842042 -0.066564694 -0.042770185
000140 73 11 8d bd a0 72 79 3d 65 c2 bc 3d 4a 15 04 3d
       -0.06888094 0.06090033 0.09216765 0.032246865
000150 10 0b 82 bd ad c9 e0 3c 9a 17 77 bb 25 ac bd 3d
       -0.06349766 0.027439917 -0.0037703277 0.092613496
000160 cd 54 09 3a 00 50 10 3a f0 3a 32 bd 40 0a 20 3d
       0.00052387716 0.0005505085 -0.04351324 0.039072275
000170 13 83 6b bd 33 9b ff bb 3a 05 d4 3c ea 94 7a bd
       -0.05749805 -0.0078004836 0.025881398 -0.06117717
000180 f7 a6 58 3d cd d8 4d 3a 23 72 3d 3d 8d 80 4a bd
       0.052893605 0.0007852435 0.046251427 -0.049439
000190 e0 64 21 3d 38 a5 3a bd 43 42 bd 3b 97 db bb 3c
       0.039402843 -0.04556772 0.0057757213 0.022931857
0001a0 9e ed 8b 3d ea b6 2d bc 50 02 d3 bd 8c e0 be bd
       0.06832431 -0.010602692 -0.103031754 -0.09320173
0001b0 80 b2 10 bd 0c 91 57 bd 27 31 85 3c 8f 20 bc 3c
       -0.03532648 -0.05262856 0.01625879 0.022964744
0001c0 a4 11 32 bc 47 4f 71 bd 35 3b 37 3c 98 47 9c bd
       -0.010868464 -0.058913495 0.01118355 -0.07630843
0001d0 30 ab 4d bd dc 83 14 bd e3 57 c6 bd 39 18 8c 3d
       -0.050212085 -0.036258563 -0.09684732 0.068405576
0001e0 5f a6 97 3d 16 b6 93 3b 62 31 8b 3d 77 53 2d bd
       0.0740478 0.0045077903 0.067965284 -0.042315926
0001f0 70 55 17 3d 2d 52 59 bd 2b 48 9e ba a3 87 f0 bd
       0.036946714 -0.053056885 -0.0012075951 -0.11744621
000200 18 8a fd 3a 61 b1 ac 3c 1e 28 ee bc c8 ee b2 3c
       0.0019343523 0.021080675 -0.029071864 0.021842375
000210 14 d9 30 bd 57 6e 97 3d f3 37 23 bc 84 da 1e bd
       -0.04317577 0.073940925 -0.00996207 -0.03878261
000220 e7 86 f4 bc 5e a4 fe bb ef e5 7f bd c3 b4 51 bd
       -0.029849483 -0.007771059 -0.06247514 -0.05119778
000230 64 67 a2 bc 66 eb a9 3c 07 c1 49 bb 28 1b 8e 3b
       -0.019824691 0.02074213 -0.003078522 0.0043367334
000240 b8 91 94 3d e2 8f 3b 3d b4 e6 16 bd cc f4 cf bb
       0.07254356 0.045791514 -0.03684111 -0.0063463207
000250 f3 5e c9 3c c7 f3 72 bd d4 c3 50 3d 36 58 b1 3c
       0.024581408 -0.059314515 0.050968006 0.021648508
000260 59 ee 5c 3d f7 f8 c3 bd ab ca 50 bd 98 bc 5c bd
       0.053938244 -0.09568971 -0.05097453 -0.053890795
000270 1b 9f c7 bc 12 84 50 bd f8 b3 83 3d c4 df d8 3c
       -0.02436786 -0.050907202 0.06430811 0.026473887
000280 02 6d b4 bd 57 62 b9 3b d2 80 b5 bb 79 7b 2b 3d
       -0.08809854 0.005657475 -0.005539038 0.0418658
000290 28 b9 13 3c 7c a5 cb ba b8 8d 55 bd 0f d8 29 3d
       0.009016313 -0.0015536989 -0.052137107 0.041465815
0002a0 8d fd de bd c0 b9 c5 bd af 2e d2 bd dd 38 45 3d
       -0.10888205 -0.096545696 -0.102628104 0.048149932
0002b0 51 fb 62 bd 3b 4e 39 bd eb 39 06 bb ac ba 2f bd
       -0.055415455 -0.045240622 -0.00204813 -0.042902634
0002c0 a7 c1 a3 bd 3f 2a 59 3d 0b 1b bb bd 3b 09 6d 3d
       -0.07995921 0.053018805 -0.091360174 0.05787013
0002d0 ef f6 3d 3d b0 47 f7 bd bd a2 8d 3c d0 f2 20 3c
       0.046378072 -0.1207422 0.017289514 0.009823516
0002e0 c6 15 32 3d bf 3f 6c 3d 6f c5 3d bd 11 04 81 bd
       0.043477796 0.05767798 -0.046330865 -0.06299604
0002f0 1d b0 5a bd c6 0a ba bd 4d 4f bb bd 26 9e e0 bd
       -0.05339061 -0.09084086 -0.09145985 -0.109676644
000300 dc ce 75 3d 76 92 7b bb 21 e8 5d 3d 1e 9d b5 bd
       0.06001173 -0.0038386858 0.054176454 -0.08867858
000310 0b b7 c5 bd de a3 be bb 00 95 9e 3b ee 84 8c bd
       -0.09654053 -0.0058178743 0.0048395395 -0.06861292
000320 26 35 a9 3e be 14 4a 3e 02 f9 e4 3e 93 b3 db 3e
       0.33048362 0.19734475 0.44721228 0.42910442
000330 d4 ff ad 3e 6c 50 89 3e 68 f2 b0 3e 7a 6d a7 3e
       0.33984244 0.2681917 0.3455994 0.3270071
000340 a3 49 a0 3e f7 51 39 40 60 63 97 3e c7 8c cf 3e
       0.3130618 2.8956277 0.29568005 0.40537092
000350 bb cc b4 3e 9f 14 99 3e af b7 47 40 d1 f4 c3 3e
       0.35312447 0.29898545 3.1205862 0.38272718
000360 79 e6 cb 3e 6f 36 7e 3e c4 8d 9c 3e 48 40 81 3e
       0.39824274 0.24825452 0.3057691 0.25244355
000370 bb 5f bc 3e 1e 25 7a 3e ac 32 b7 3e a9 80 9a 3e
       0.36791787 0.24428222 0.35780847 0.30176285
000380 25 5e fa bc c1 5d c5 3e 67 79 90 3e 35 d7 c8 3e
       -0.03056247 0.3854809 0.28217623 0.3922669
000390 18 26 c4 3e e2 cf 82 3e d1 13 07 3f ed b4 11 3f
       0.38310313 0.25549227 0.5276461 0.56916696
0003a0 54 ec c2 3e ea be ed 3e d6 bd da 3e a4 e1 3f 3e
       0.3807093 0.46434718 0.42722958 0.18738419
0003b0 08 75 96 3e f7 aa 77 3e 91 f7 14 3f fe 1d db 3e
       0.29386163 0.24186312 0.58190256 0.4279632
0003c0 cb 00 8e 3e a1 19 e5 3e 23 af 97 3e b9 59 9b 3e
       0.2773498 0.44746116 0.29625806 0.3034189
0003d0 b8 30 ee 3e 5e eb 97 3e bd 76 ba 3e 01 5c 95 3e
       0.46521544 0.29671758 0.36418715 0.29171756
0003e0 76 0d ba 3e 94 a8 45 3e ae ad a9 3e 0d 11 8a 3e
       0.36338395 0.19302589 0.3314032 0.26966134
0003f0 cf 76 7e 3e a9 e1 f7 3e ec b9 ff 3e 74 80 11 3f
       0.2485001 0.48414353 0.49946535 0.5683663

ff_1.bias f4 [100]
000000 af 17 ba bd 8d cd 68 3d db e0 6b 3e 1f 10 bc bd
       -0.090865485 0.056836654 0.23034994 -0.09182762
000010 cc e8 5a 3d 3f 5a 35 3c 5d e4 8a 3d fa 7a b4 bd
       0.05344467 0.01106888 0.06781838 -0.088125184
000020 7d e3 1c bd df ee d4 3e ab dd 8e 3e c2 73 9e bd
       -0.038302887 0.41588494 0.27903494 -0.07736923
000030 89 7d 4e 3e fd 90 ad 3c fa 7e 96 3e 3b a6 13 3e
       0.20165075 0.0211873 0.2939375 0.1441888
000040 12 40 2e bd b3 8b c3 3e 72 87 68 3d b4 8b aa 3e
       -0.04254157 0.3819252 0.056769796 0.3330971
000050 4f c0 0b 3d d9 63 7f 3e 32 70 f7 3e 63 32 65 3e
       0.034118947 0.24940433 0.48327786 0.22382502
000060 d0 98 b2 3c a4 c5 17 bc d2 28 65 bd c4 b5 6e 3e
       0.021801382 -0.00926343 -0.055947132 0.23311526
000070 5a da 5b 3e 9a 35 3f bd d9 90 ad 3c ce 59 08 bd
       0.21470013 -0.046681978 0.021187233 -0.03328877
000080 ca f0 c0 3e c7 b0 cf 3d 96 94 d4 bd 65 5c 52 3d
       0.37683707 0.101411395 -0.10379903 0.051357646
000090 95 bd 7b bd 68 45 90 bb a2 4b a1 3e ae e4 8a 3d
       -0.061460096 -0.004402805 0.31503016 0.067818984
0000a0 26 b7 66 3e e9 95 5e 3e af 4c c4 3c 31 7c 85 3e
       0.22530803 0.21736874 0.023962347 0.26071313
0000b0 1a 90 f7 3b 22 40 7a 3a 2b ad 89 3d 74 fe ac bd
       0.00755502 0.00095462997 0.06722482 -0.084469706
0000c0 a3 06 04 3e 1e 78 8a bd 66 e3 a3 3c 9c 23 96 bd
       0.12893157 -0.06761192 0.020005893 -0.07331011
0000d0 c0 8c 4c 3e c5 31 e1 3d 1a 64 dc bd 58 02 66 3e
       0.19975567 0.10995821 -0.1076128 0.22461832
0000e0 17 0f a0 bd 3c d7 6d 3e 2b ab 8e 3c af 1a 18 3d
       -0.07815378 0.23226637 0.017415604 0.037134822
0000f0 07 28 6a 3e 3f 91 be 3e cf 12 2b 3e eb d3 b9 3c
       0.22866832 0.3722019 0.16706394 0.022684058
000100 50 d4 e7 39 2f 4e 57 3e 23 03 5d 3d 0b 16 9f 3d
       0.0004421794 0.21025918 0.05395807 0.07767876
000110 ac 99 5e 3e 73 cd 2d 3e 77 bf 9d 3e 4f f5 c4 bd
       0.21738309 0.16972904 0.3081014 -0.096171014
000120 28 fe ac bd 16 5c 9b 3d 21 a0 b5 3e 93 29 1b 3e
       -0.08446914 0.075859234 0.3547373 0.15152578
000130 a5 cd dd 3d 84 ec 12 bd 6d a2 08 3e a9 d9 bb bd
       0.10830239 -0.03587009 0.1334321 -0.09172375
000140 1b 84 0e 3e e2 c8 7e 3e c0 89 73 3e 92 23 b3 3d
       0.13917582 0.24881318 0.23783016 0.08747019
000150 34 0b 93 3d 82 01 cc 3d ba 53 d9 bd c3 06 43 3e
       0.07179871 0.09961225 -0.10611673 0.19045548
000160 d7 9e 4f 3d c9 20 f5 3c c8 38 51 3d c5 a1 34 bd
       0.05068859 0.02992286 0.05107954 -0.044099588
000170 91 b9 3a 3e 89 3a 14 3e 6a 57 b7 3e 86 4c b3 3d
       0.1823485 0.14475454 0.3580888 0.0875483
000180 f6 42 db 3c fb 86 b6 3e e7 13 b0 bb e5 29 63 bd
       0.026765328 0.35649857 -0.0053734663 -0.055459876

ff_2.weight f4 [9, 100]
000000 20 59 de 3c e1 24 ec 3c 39 42 a1 be 33 11 68 bd
       0.027142107 0.028826179 -0.31495836 -0.056657027
000010 e3 67 bd be 88 e0 ad 3d 6e 8e f8 3c f5 c2 9b bd
       -0.36993322 0.084900916 0.030341353 -0.076055445
000020 72 b2 10 bd 60 62 b3 be 89 2c fa be 61 5b 97 3d
       -0.03532643 -0.35035992 -0.48862103 0.07390476
000030 d9 54 01 bf c6 66 cf be 72 75 ec be b6 04 b1 be
       -0.5052009 -0.40508097 -0.46183354 -0.34573907
000040 2c ff 54 bd a9 0f dc be a6 50 06 bd d4 76 dd be
       -0.052001163 -0.42980698 -0.032791756 -0.4325472
000050 72 c5 ac 3d 60 a2 e4 be 0c f5 99 be 9c 6c fc be
       0.08436097 -0.44655132 -0.30069768 -0.49301612
000060 f8 9d 83 bc ca 7e 9e bb 7b 58 77 bb 21 f1 86 be
       -0.016066536 -0.004836892 -0.0037741947 -0.26355842
000070 ed fb ea be ed 81 0c bd a0 19 87 3d c8 d6 87 3d
       -0.4589533 -0.034303594 0.065966845 0.06632763
000080 ff 53 ce be 25 4e 89 be a0 4e bf 3d 92 b3 f2 be
       -0.4029846 -0.26817432 0.093411684 -0.47402626
000090 9a 22 a0 bd 55 d3 4b 3d 5a 65 f9 be e9 a5 a7 bd
       -0.078191 0.04976209 -0.48710138 -0.08185942
0000a0 32 45 9d be 02 54 b3 be 2b e6 6e 3d 12 9c c7 be
       -0.30716854 -0.3502503 0.058324974 -0.3898626
0000b0 5c 5b 3c 3d eb 5b c3 bd 84 12 8b 3c b0 39 8d ba
       0.045985565 -0.09539016 0.016976602 -0.0010774639
0000c0 d0 cf fe be a0 94 40 bd 64 ba ab 3d 8e ad 85 3d
       -0.49767923 -0.04701674 0.083851606 0.065272436
0000d0 05 51 c4 be 7f b0 fc be 20 72 f6 bc b1 76 db be
       -0.38343063 -0.49353406 -0.030083716 -0.42863992
0000e0 76 f7 13 3c 34 a9 f2 be 1d 02 f6 be 7a 35 04 bf
       0.009031167 -0.47394717 -0.48048487 -0.516441
0000f0 45 9e f4 be 1c e3 a7 be 1a a8 d8 be c8 0d 8b bc
       -0.47777 -0.32790458 -0.4231575 -0.016974345
000100 60 8b d7 bd 3a ba 9a be 08 af e2 be b6 74 96 3d
       -0.105246305 -0.30220205 -0.44274163 0.073464796
000110 0b bf 69 be 1e 43 e2 be c3 c6 ad be 23 78 89 3d
       -0.22826783 -0.4419183 -0.33940706 0.067123674
000120 ca 9b 11 3d 01 52 7b 3d 7a 83 a0 be c1 d3 c1 be
       0.035548963 0.061357502 -0.3135031 -0.37856868
000130 eb 1b d0 be 44 5b dd 3c 2d 5e fe be 98 95 fc bc
       -0.406463 0.027021058 -0.49681225 -0.03083305
000140 c7 79 b2 be 5e 56 d3 be 1b 23 c9 be d6 09 5c be
       -0.34858534 -0.4127683 -0.39284596 -0.21488127
000150 69 1c f7 be 78 f1 ce be 7c d3 b2 3d 9c e9 c6 be
       -0.48263863 -0.404186 0.08731744 -0.38850105
000160 58 6e 49 3d b2 e9 1f 3d c2 e8 22 3d d5 a1 44 bd
       0.049177498 0.03904123 0.039772756 -0.048005898
000170 f0 1c e5 be 60 77 ee be 06 87 b1 be e6 67 d4 be
       -0.4474864 -0.4657545 -0.34673327 -0.41485518
000180 1b 3b 5f be 84 f0 b0 be 33 ed 6a 3c 99 0e 98 bc
       -0.2179989 -0.345585 0.014338779 -0.018561648
000190 da b6 b7 bd d0 fa 0f 3d c4 56 bd be b3 de 2d 3d
       -0.08970423 0.035151303 -0.3698026 0.04244871
0001a0 8d 92 e0 be 99 32 74 3d 4c de b5 3c 6e 23 99 3d
       -0.4386181 0.059618566 0.022200726 0.07477461
0001b0 9b 6a 7f 3d ec ab bc be a2 13 e0 be f9 88 47 bd
       0.062357526 -0.36849916 -0.4376498 -0.04871461
0001c0 2a a0 fe be 76 d6 f4 be 58 e0 cc be 5d 70 02 bf
       -0.4973157 -0.4781987 -0.4001491 -0.509527
0001d0 5f 00 b6 bd e4 f6 c0 be b9 cc b9 bc 05 8a 06 bf
       -0.088867895 -0.37688363 -0.022680627 -0.5255435
0001e0 db 06 49 bd 15 69 92 be 59 85 14 bf fa a0 e0 be
       -0.049078804 -0.28595796 -0.5801597 -0.43872815
0001f0 53 9c bc bc 47 54 48 3d af d7 e2 bc 7b ab cf be
       -0.02302376 0.0489085 -0.027690737 -0.40560517
000200 54 90 a2 be c3 fd b3 bd a7 5c 69 bd e2 93 73 3d
       -0.3175074 -0.087886356 -0.056973126 0.059467204
000210 60 91 da be 7e 65 8f be 90 7f 97 3d bb 00 03 bf
       -0.42689037 -0.2800712 0.073973775 -0.5117299
000220 15 71 51 bd 2a 3a aa bd 29 43 f2 be fe 8c 58 bd
       -0.051133234 -0.08311875 -0.47316864 -0.052868836
000230 40 71 bc be 77 5a e1 be f0 5e ab 3d 6c ac c3 be
       -0.36805153 -0.44014332 0.08367717 -0.38217485
000240 6b 36 5b 3b dc 84 3e bd f7 2a 82 3c e7 0c 8d 3d
       0.0033449184 -0.046513423 0.015889628 0.068872266
000250 36 81 ce be 95 36 26 bd 51 b6 7e 3d e3 c0 87 3d
       -0.40332955 -0.040579397 0.06218559 0.06628587
000260 12 e7 de be 59 8d 82 be 32 9f 93 3b de da be be
       -0.43535668 -0.25498465 0.0045050615 -0.37276357
000270 38 3a 5f 3d a9 48 02 bf ea 6b b1 be 88 a8 8c be
       0.05449888 -0.5089212 -0.34652644 -0.2747233
000280 5b 1f f3 be a9 fb ce be e7 74 ce bd 2c 42 66 bd
       -0.4748486 -0.40426376 -0.10080891 -0.05621545
000290 a8 46 bc 3c 72 52 c1 be dc d6 cd be a4 13 97 bd
       0.02298291 -0.37758213 -0.40202987 -0.07376793
0002a0 3e b3 e8 be 4d 39 9e be e9 db af be 34 16 f4 3b
       -0.4544925 -0.30903092 -0.34347466 0.007448936
0002b0 a2 88 ca 3d d5 ae 67 3c 4d 99 ed be 7a 7f d5 be
       0.09889342 0.014140804 -0.46406022 -0.4169882
0002c0 2d 0d e0 be ca 61 dc 3c 45 ef d8 be 1d 2f 97 3d
       -0.43760052 0.026902098 -0.42370048 0.07382033
0002d0 cc 57 c2 be 87 1d ea be f4 61 99 be 3b ce 79 be
       -0.3795761 -0.45725653 -0.29957545 -0.24395077
0002e0 d5 2b d5 be fe 94 aa be b7 15 98 3d c3 27 e9 be
       -0.41635004 -0.33316797 0.07426017 -0.45538148
0002f0 14 ef 18 bd 4c b2 05 3d 85 09 a3 3c a6 e5 bf 3c
       -0.037337378 0.03264074 0.019902 0.023424935
000300 64 df f6 be 27 05 c5 be 21 ab b0 be f8 e8 9f be
       -0.4821731 -0.38480493 -0.3450556 -0.3123243
000310 4e 7e af be d7 12 f5 be 87 68 43 bd e1 11 22 3d
       -0.3427605 -0.47865936 -0.047707107 0.039567832
000320 ba bb e0 3c 9e 46 ee 3b 0a 4c b8 be cb ad bf 3d
       0.027433265 0.007271602 -0.35995513 0.0935932
000330 8a c1 b4 be 22 0a 6d bb 93 f6 72 3b 0f 3b dd 3c
       -0.3530391 -0.003616937 0.003707324 0.0270057
000340 8f 4f 87 3d c9 a2 fd be 2b 3e ae be 9d bc 2d bd
       0.066069715 -0.49538258 -0.34031805 -0.042416204
000350 53 9a 0a bf 9a b9 82 be e7 95 9a be af b6 b2 be
       -0.5414173 -0.25532228 -0.3019249 -0.34905002
000360 a8 b5 b6 3c e3 c9 b1 be 9d 4f b9 3b 26 9e dc be
       0.022303417 -0.3472434 0.0056552426 -0.43089408
000370 c8 c3 c6 bc d1 2a d6 be 43 f7 a2 be 28 14 96 be
       -0.024263278 -0.4182954 -0.3182927 -0.29312253
000380 27 8f a7 bd 0f 0a 43 bb 03 2e a2 bd f3 d0 b9 be
       -0.08181601 -0.0029760634 -0.07918932 -0.36292228
000390 4a 8f 07 bf 4e 8e 92 3d 88 6f 80 bd f4 1f 04 3d
       -0.52953017 0.07156049 -0.06271273 0.032257035
0003a0 ed 5c b3 be cf 41 d5 be 6d 0d ad b9 7f 0e de be
       -0.35031834 -0.4165177 -0.00033007134 -0.43370435
0003b0 e5 20 4e 3d 94 52 97 3d b0 4b bd be 71 a4 b2 3c
       0.05032434 0.073887974 -0.36971807 0.021806927
0003c0 52 96 03 bf 19 b8 a6 be b7 72 6b 3d 96 d7 b4 be
       -0.51401246 -0.3256233 0.057482447 -0.3532073
0003d0 cf 1e cd 3c 05 cf 63 3c 23 b3 9c 3d cb d4 ad 3d
       0.025039105 0.013904338 0.07651355 0.08487853
0003e0 f8 88 fc be ce 6e 31 bd 28 99 12 3d 30 5a 47 3d
       -0.4932325 -0.043318562 0.035790592 0.048669994
0003f0 86 29 d2 be 5e 32 de be 23 87 96 bc da 64 a5 be
       -0.41047305 -0.43397802 -0.018374985 -0.32303506

ff_2.bias f4 [9]
000000 06 6c 70 3b f3 df 2d bc 60 ed 3f 3d 45 6c a3 3e
       0.003668548 -0.010612476 0.046857238 0.3191854
000010 96 4a 92 be ff 08 28 3e db bc d6 bf eb 92 29 bf
       -0.2857253 0.16409682 -1.6776384 -0.66239804
000020 38 09 6e bf
       -0.92982817
