RCA/Models/CQL_CLT_Cont_sample.pth (torch, 57048 bytes, 6 tensors)

head.weight f4 [100, 32]
00000000: ad6d 14bf fb19 2ebf 4058 b7be aa95 c4be
00000010: 5bdc 023d 8765 2c3e 8f69 003f 67c9 1f3f
00000020: f103 213f cb3d 103f 5fbf 2e3f fb7b 0e3f
00000030: 40f5 073f 1cb8 0d3f 24f0 293f 1f9a 0a3f
00000040: 9797 1f3f 43da 033f d3fb 353f 24b1 bc3e
00000050: 8b8a cf3e 6ea1 e73c a44a dabd ef5f 72be
00000060: 0965 5c3e 6215 c5bd c05a ecbc 93dd 4ebf
00000070: f81d 77ba 7d56 93be 1428 2a3f d5f4 033f
00000080: 9c7a c1be 7551 f5be 8a31 97be 0cd8 c7be
00000090: 04d1 80be b9bc aa3e 1109 9e3e 9861 ac3e
000000a0: cb89 0f3f 4f1a 293f 5b83 0d3f 1a26 e33e
000000b0: 0170 123f 63e0 d03e 810f d43e 54fb fe3e
000000c0: 6d02 fe3e 4064 ab3e a3eb 143f 5569 893e
000000d0: 80fd 3c3d 49f6 91bd 4923 96be 8376 3fbe
000000e0: 7121 f4bb 9bd5 f23d ebb0 6e3e a041 6b3e
000000f0: 62f7 ebbc 27c5 0cbe d9fe ee3e 5b88 123f
00000100: 08a7 0cbf d453 36bf 35fe 0abf efe7 a1be
00000110: 5f0a adbd a9f9 8a3e 09b2 d73e 4a32 133f
00000120: f257 123f ee34 343f 57db 033f 467e 083f
00000130: 0524 303f 1453 d63e 86db 233f 8c6a 2c3f
00000140: 884a fe3e aad0 2a3f 5fd6 f03e afa5 c53e
00000150: bff0 ab3d de75 cd3d c5d1 98be e723 cdbd
00000160: 7cb9 a73d f0a4 f83d c19d 313d 85f1 8bbe
00000170: 66b9 e03d 51aa 8abe ecfa 1a3f 85d2 283f
00000180: 555b d1be 93f1 e3be 35c2 35bf f285 0ebf
00000190: 2b5a 51be 2fd8 c63d 8c03 f53e ebb8 493f
000001a0: 39d8 f73e 1762 1f3f 9735 183f 216e 363f
000001b0: e20c 413f 5d96 c83e b7b6 183f 4a20 2e3f
000001c0: 9be2 353f 9af7 473f 69be 1d3f 8eca e23e
000001d0: 6189 d63e e8d0 10bd 3869 71be dcfa 19be
000001e0: ed77 3a3d 6045 9f3d 7598 22bd a11b 973e
000001f0: 96a1 87bd d8df 903d a1a9 1c3f f841 023f
00000200: 1c21 11bf 7d96 f1be bbf2 34bf b310 82be
00000210: cb75 efbc 716b 8b3e 5986 fc3e 6bcc 103f
00000220: 202b 423f 99c7 203f f75c 423f 9bd8 3c3f
00000230: a05d 0f3f a419 183f 1bed 163f 3e46 203f
00000240: a24d 113f e71e 353f a48a d43e f376 c13e
00000250: 0cfa df3e 1933 2f3e f47b e13c 78ec f3bd
00000260: dc97 943d ea6b 1abd f43b 743c 6c79 9d3e
00000270: 095b 273d 3ec6 28be a32f e63e f8cc 1e3f
00000280: 0596 ccbe 97c5 b3be af6c bcbe 2f29 84be
00000290: a0b3 83bc c905 493e 1ab3 e73e 9365 d03e
000002a0: c06b db3e 4f9b c53e dca8 023f 2b5a e73e
000002b0: 78e5 043f 95a0 053f f97b 883e e6fc 993e
000002c0: 16b6 ee3e 7e79 093f c9a8 eb3e ca1f 873e
000002d0: 1dc2 273e 2247 f0bc f619 40be b57e bbbe
000002e0: 33a4 103e cded 02bb 7184 643d 0cfc 0ebf
000002f0: ead4 b33d 5eb8 4fbe 0b9e cf3e 91a1 153f
00000300: d52e 01bf d2fb 07bf abf2 b2be b504 40be
00000310: 85e3 24bd 1ee7 463e 074b 913e 1b11 213f
00000320: a9ce 293f c6ca 263f 2625 1b3f b35a e33e
00000330: 3ea5 113f c4e0 1c3f 0d2b 193f 36b7 1b3f
00000340: 4106 d63e af71 d93e 8c80 083f aff6 513e
00000350: 7787 5d3e 37ec a9bd 9023 b9bd f776 48be
00000360: 4dbb 373e 37c1 603e d747 943e 0065 3c3f
00000370: aaf9 c2bd c29e cbbc 9953 e63e 1dc6 283f
00000380: e601 24bf 96b2 49bf 3cb1 16bf e147 84be
00000390: 70d2 57be e205 263e ea3d df3e cd2e 263f
000003a0: 7502 423f bff6 093f 2b40 483f 18a1 0e3f
000003b0: 1da5 303f c548 0f3f 29d4 1f3f eb31 0f3f
000003c0: c3aa 2e3f 4a96 e33e 442a d03e 28e4 db3e
000003d0: 352a 8d3e 5e49 d53b 57cb d3bd e9d4 ecbd
000003e0: a8a4 913e beda 1f3e 6b3d 6a3e e88d a43e
000003f0: f077 28be ba88 b7bc f4aa d73e 0980 0d3f
-0.5797985 -0.68008393 -0.35809517 -0.38395435 0.03194843 0.16835605 0.5016107 0.6241669
0.6289664 0.5634429 0.6826076 0.5565793 0.53108597 0.55359054 0.6638205 0.5414142
0.6234068 0.51504916 0.7108738 0.36853898 0.40535387 0.028275218 -0.10658768 -0.23669408
0.21522917 -0.09623219 -0.028851867 -0.80806845 -0.0009426768 -0.28776923 0.66467404 0.5154546
-0.37788856 -0.4791371 -0.29529983 -0.39032018 -0.25159466 0.3334711 0.30866292 0.33668208
0.5606963 0.6605577 0.5527856 0.44365007 0.57202154 0.40796193 0.4141808 0.49801123
0.49611226 0.33474922 0.58172053 0.26838174 0.046140194 -0.07127053 -0.29323795 -0.18697552
-0.0074502756 0.11857148 0.23309676 0.22974253 -0.028804485 -0.13747083 0.46678808 0.5723931
-0.5494237 -0.7122166 -0.5429414 -0.31622264 -0.08449244 0.271436 0.42128018 0.5749861
0.57165444 0.70393264 0.5150656 0.5331768 0.6880496 0.4186026 0.6400684 0.6735008
0.49666238 0.66724646 0.47038552 0.3860297 0.08395528 0.10032247 -0.2984754 -0.100166135
0.08189675 0.12140834 0.043363336 -0.27332702 0.10972862 -0.27083066 0.60539126 0.6594623
-0.40889993 -0.44520244 -0.7099946 -0.55673134 -0.20444553 0.097092025 0.4785427 0.7879779
0.48407152 0.6225905 0.5945677 0.71261793 0.7541028 0.39177218 0.596538 0.6801802
0.710489 0.78112185 0.6161867 0.44295162 0.41901687 -0.03535548 -0.23575294 -0.15037102
0.045524526 0.07776904 -0.039696176 0.29513267 -0.06622617 0.07073945 0.61196333 0.5088191
-0.56691146 -0.47185126 -0.7068288 -0.25403365 -0.029230973 0.2723041 0.4932125 0.5656192
0.75847054 0.6280456 0.75923103 0.73768014 0.56002235 0.59414124 0.58955544 0.6260718
0.56759083 0.7075028 0.41512024 0.37786064 0.43745458 0.17109336 0.027524926 -0.11910337
0.072555274 -0.03770057 0.014906872 0.307567 0.040858302 -0.16481873 0.4495822 0.6203151
-0.39958206 -0.35111687 -0.3680167 -0.2581267 -0.016076863 0.19631113 0.4525383 0.40702495
0.42855644 0.38595054 0.5103891 0.4518598 0.5191264 0.52198154 0.26657084 0.3007576
0.46623296 0.5370101 0.4602721 0.2639144 0.16382642 -0.029330794 -0.18759903 -0.36620107
0.14125137 -0.0019978166 0.05579037 -0.55853343 0.087808445 -0.20285174 0.40550265 0.58449656
-0.50462085 -0.5311862 -0.34950766 -0.18751796 -0.040256042 0.19424102 0.28377554 0.62916726
0.66330963 0.6515316 0.6060356 0.44405136 0.56892765 0.61280465 0.59831315 0.6082643
0.41801646 0.42469546 0.53321147 0.20504259 0.21633707 -0.082970075 -0.09039986 -0.19576631
0.17942543 0.21948706 0.2896106 0.73591614 -0.09520276 -0.024855975 0.44985655 0.65927297
-0.64065397 -0.78788126 -0.5886419 -0.2583609 -0.2107637 0.16213182 0.43601924 0.6491516
0.75785 0.5389213 0.7822291 0.5571456 0.6900194 0.5597041 0.62433106 0.55935544
0.6822931 0.444506 0.40657246 0.42947507 0.27571264 0.00650899 -0.10341518 -0.11564047
0.28445935 0.15610787 0.22874992 0.32139516 -0.16452003 -0.022404063 0.42122614 0.5527349

head.bias f4 [100]
00000000: 1887 3a3f 7c4a 183f fd96 d73e d5f2 f73e
00000010: a1ef 083f 5425 103f 4a02 bd3e 7e3f 0e3f
00000020: 4972 193f f85a 3a3f 0772 3b3f 35d2 233f
00000030: f3a7 cf3e de84 ba3e f9be 183f ac2e 1b3f
00000040: 2453 163f 7045 133f 2f05 bc3e f975 113f
00000050: 502e 2a3f c2b4 1a3f cf68 263f 395d 233f
00000060: c6b4 83bd 4590 3a3f fc7c e53e bf9d 2f3f
00000070: 3f92 323f a9db 223f c2b6 d13e 6195 343f
00000080: 6864 1c3f 0789 0b3f f980 dd3e 828d 273f
00000090: 5926 103f 828a 1e3f 832c 053f 5e8b 30be
000000a0: 2f33 1d3f 3363 2f3f 21e1 123f 1c3c 223f
000000b0: 0b03 1d3f 07a7 083f f396 2b3f b81e 053f
000000c0: 8e21 073f 2a6b c53e c192 e53e 19ea 0b3f
000000d0: d3fd 0e3f af2d f53e 6ec5 0e3f aa59 3d3f
000000e0: 291d 003f 2111 023f f5fc 143f 4ec0 f13e
000000f0: 671e 133f f145 3d3f 54cd 1d3f 455c 1d3f
00000100: 54cd 2e3f a511 043f 2427 433f c4da 1d3f
00000110: bb53 fe3e 3028 073f 8218 0f3f 124a 1fbe
00000120: ae19 303f efa8 073f e635 283f 5d7d d33e
00000130: 886f 153f 4307 153f 5ea2 1e3f a27b 0d3f
00000140: 26f4 363f 7c20 1b3f 7ada 033f 05f8 fa3e
00000150: ca44 283f cc22 313f 98e4 233f ece1 493f
00000160: 8de6 d33e 1dac 183f 4654 123f c4fd 233f
00000170: b6f3 243f a4df 0f3f 5382 093f e277 023f
00000180: c3a5 0f3f 7314 fa3e 1cd0 eebd 923f 183f
0.72862387 0.59488654 0.42107382 0.48427454 0.53490645 0.5630696 0.3691581 0.5556563
0.5994001 0.7279506 0.73220867 0.63992625 0.40557823 0.36429495 0.596664 0.6061809
0.5872061 0.5752783 0.36722705 0.56820637 0.6647692 0.60432065 0.65003675 0.6381412
-0.06430964 0.7287639 0.44821918 0.68600076 0.69754404 0.63616425 0.40959746 0.70540434
0.6109071 0.5450596 0.4326246 0.654503 0.56308514 0.61930096 0.52021044 -0.17240664
0.61406225 0.6851074 0.5737477 0.6337297 0.6133277 0.53379864 0.67027205 0.52
0.52785575 0.38558322 0.44838527 0.5465408 0.55856055 0.47886416 0.55770004 0.7396494
0.50044495 0.50807387 0.5819848 0.4721703 0.57468265 0.7393485 0.6164143 0.6146892
0.68282056 0.51589423 0.762316 0.61661935 0.49673256 0.52795696 0.5589677 -0.155556
0.68789184 0.5299215 0.6570724 0.41306582 0.5837331 0.58214206 0.619665 0.55266774
0.7146629 0.6059644 0.51505244 0.4901735 0.65729964 0.6919372 0.6402068 0.78860354
0.41386834 0.59637624 0.5715984 0.6405909 0.64434373 0.56200624 0.53714484 0.50964177
0.5611231 0.48843727 -0.116607875 0.59472

ff_1.weight f4 [100, 100]
00000000: 307d 0cbd 67be 3b3c 008c 81bc e067 c93c
00000010: 67f8 893c b0b0 a1bd cdf9 3dbd 1384 b83d
00000020: 7058 aebd 3507 ae3d f342 6ebc ed57 81bc
00000030: 15b2 c6bd 9f11 a2bd 6bcd 883d 0025 ce3c
00000040: 775f 81bd ffc2 b3bd ba54 813d 235c 82bd
00000050: 4d28 9d3c 1713 c13d 57af a4bd da0a 1dbd
00000060: 3005 bfbd 774c 15bd eaaf 7d3d f349 d03c
00000070: 2ab8 b0bd 8783 643d b37a b03b 8027 163c
00000080: edd3 513d abf5 a3bd 57a6 273d 6076 88bd
00000090: 7fdb bdbd 779f 3ebd 9ad8 14bb 6a31 453d
000000a0: fa00 84bd c0d1 9f3c c049 493c 23cb 2e3d
000000b0: ad4b bcbc c5d1 93bd e319 803d 85b3 b0bd
000000c0: 0037 bb3b 204c fd3c 6d99 0abd b3bc 94bd
000000d0: 9d36 35bd c556 98bd cd2b b7bc 97d2 68bd
000000e0: 1a64 47bd e51f 943d 1dc6 2bbd 30d6 c2bd
000000f0: 8863 c13d 7b12 9fbd a762 cbbd c801 a63d
00000100: 4310 77bd 4aff 98bd c3a7 bd3d 17a4 41bd
00000110: 73fd b9bc 73a5 5e3c 6736 22bd b2ae b83d
00000120: 9ad1 4ebd 0dbf 64bd b782 873d 159e a83d
00000130: 37f4 71bd 73a8 fc3c 1253 88bd ca2f 2fbd
00000140: 7311 8dbd a072 793d 65c2 bc3d 4a15 043d
00000150: 100b 82bd adc9 e03c 9a17 77bb 25ac bd3d
00000160: cd54 093a 0050 103a f03a 32bd 400a 203d
00000170: 1383 6bbd 339b ffbb 3a05 d43c ea94 7abd
00000180: f7a6 583d cdd8 4d3a 2372 3d3d 8d80 4abd
00000190: 723b 1c3d f5e9 42bd 4998 423b bb70 c93c
000001a0: 6a33 943d e137 41bc c959 d4bd bba0 c1bd
000001b0: 81ad 17bd 6a55 2bbd f4cf 973c 8c81 d93c
000001c0: 8e26 44bc 474d 6abd 705f 093c 6215 a3bd
000001d0: c1aa 42bd ce75 20bd 4323 c8bd 13cb 883d
000001e0: 0d5c 933d f295 383a 0d3a 853d 8063 2cbd
000001f0: 23fd 2a3d 9818 62bd af3e 46bb 5618 ecbd
00000200: 3d3c 5dbb f188 8e3c 1844 f9bc 20f7 9c3c
00000210: 9b4b 38bd 8a5d 8c3d d9c4 5ebc 07a6 27bd
00000220: 22b2 04bd c557 30bc b92b 91bd aef0 52bd
00000230: 1d44 a8bc c8ec b03c 75f1 c5bb ef3c ed3a
00000240: 0e64 8c3d 6f57 273d 61ff 1dbd dd08 06bc
00000250: 71bc 963c 5f31 7dbd db7b 433d 94fd 823c
00000260: ded8 483d 9caf c5bd 3b3a 5dbd 7017 64bd
00000270: 002a dcbc 71df 53bd 1dc8 7d3d b010 c43c
00000280: 972f b3bd 8497 a13b b165 b7bb f198 243d
00000290: b05f f93b 1044 08bb 175a 51bd d570 293d
000002a0: 917e e3bd 8935 c7bd cbd5 dabd c782 5a3d
000002b0: 1c8c 60bd bc87 47bd 6e36 c5bb d63a 36bd
000002c0: 59d2 abbd 08ae 7f3d affe c1bd 2816 673d
000002d0: 1c9e 3d3d d6d5 efbd 017b 813c a692 0a3c
000002e0: ec34 263d 7aee 683d 6e9b 41bd e79e 81bd
000002f0: f7d5 5fbd 93f6 c2bd 0078 bebd 3daf debd
00000300: 3e49 803d 7c36 99bb 81af 583d edc8 bcbd
00000310: 3aa0 c8bd 5088 febb 0095 9e3b 7f80 94bd
00000320: 944a 113d 1e72 71bd f1d7 093d 0f68 a23c
00000330: 3298 c8bd 63f2 e0bc 1277 173b a426 a6bd
00000340: 7a93 1c3d 920d a73b 6949 15bd e0a4 3c3c
00000350: dbc3 db3c 4972 863c d8f2 8a3d 4c5b 1c3d
00000360: b749 993d 73cb b7bd 0493 afbd c53e adbd
00000370: 6c75 3fbd ba29 45bb a3ca 14bd 5b13 81bd
00000380: 406e ebbc 19c5 b7bb d8a8 163b b1b7 0c3d
00000390: 59fc 0ebd 65f0 2ebc e9af 893d 15fc 8c3d
000003a0: f4fa c7bd 1a81 c23b 2529 6f3c 3db1 39bd
000003b0: a5fd 9bbc 258e 81bd cbb4 9a3d 6519 9b3d
000003c0: 835d 233c 42c8 a53d b6dc 6fbd 403a 2b3d
000003d0: 83a4 45bc 7444 c0bc d5fe cb3c 29e1 b4bc
000003e0: 7220 b5bc 073c 53bd cc26 ec3c 5d48 ddbd
000003f0: 86d4 9bbd 3807 463d b7ad d03c 5bb0 aa3d
-0.034299076 0.01145897 -0.015813828 0.024585664 0.01684208 -0.078950286 -0.046380807 0.09009566
-0.08512962 0.084974684 -0.014542329 -0.015788997 -0.09701935 -0.07913517 0.06679805 0.025164127
-0.063170366 -0.08777427 0.063149884 -0.0636523 0.019184256 0.09427469 -0.08041256 -0.038340427
-0.09327161 -0.036449876 0.061935343 0.025425887 -0.086288765 0.055789497 0.0053857206 0.009164691
0.0512275 -0.08005842 0.04093012 -0.06663203 -0.09270381 -0.046538796 -0.0022712112 0.048142828
-0.06445499 0.019509196 0.01228565 0.042674195 -0.022985304 -0.07217745 0.062549375 -0.08627991
0.0057133436 0.030920088 -0.033837724 -0.07262554 -0.044241536 -0.07438425 -0.022359753 -0.05684146
-0.04867945 0.07232646 -0.041936982 -0.09513509 0.09442812 -0.07767197 -0.09930926 0.081058085
-0.060318243 -0.074705675 0.09260514 -0.04727563 -0.022703862 0.013589251 -0.039602663 0.090176955
-0.05049286 -0.055846263 0.06616729 0.08233277 -0.059070792 0.030842042 -0.066564694 -0.042770185
-0.06888094 0.06090033 0.09216765 0.032246865 -0.06349766 0.027439917 -0.0037703277 0.092613496
0.00052387716 0.0005505085 -0.04351324 0.039072275 -0.05749805 -0.0078004836 0.025881398 -0.06117717
0.052893605 0.0007852435 0.046251427 -0.049439 0.03814263 -0.0475864 0.002969282 0.024589887
0.07236369 -0.011793108 -0.10368688 -0.09454485 -0.0370307 -0.041829504 0.018531777 0.02655103
-0.011972083 -0.057202604 0.0083845705 -0.07963063 -0.047526125 -0.039174847 -0.09772351 0.06679358
0.07195292 0.00070413866 0.06505213 -0.042087078 0.041745316 -0.055199236 -0.0030249765 -0.11528079
-0.0033757829 0.017399283 -0.030427977 0.019160807 -0.044993978 0.06853779 -0.013596737 -0.04092982
-0.032396443 -0.010763113 -0.070884176 -0.05149906 -0.020540291 0.021597281 -0.006040747 0.0018099825
0.068550214 0.040854868 -0.038573626 -0.008180824 0.018400403 -0.061814662 0.04772554 0.015990056
0.049034946 -0.096526355 -0.05401061 -0.055686414 -0.026875496 -0.051726762 0.06195842 0.023933738
-0.087493114 0.004931392 -0.0055968394 0.04018492 0.007610284 -0.0020792522 -0.051111307 0.04136737
-0.11108125 -0.09727008 -0.10685309 0.053347375 -0.05482112 -0.04871343 -0.0060184514 -0.044489704
-0.0838973 0.06242183 -0.09472405 0.056417614 0.046293363 -0.11710708 0.015805723 0.008457815
0.040577814 0.056868054 -0.04726737 -0.06329136 -0.054647412 -0.095196865 -0.09300232 -0.10873268
0.0626397 -0.0046756845 0.05290175 -0.09218011 -0.09796186 -0.0077677146 0.0048395395 -0.07251071
0.035471514 -0.05894672 0.033653203 0.01982501 -0.09794654 -0.027459329 0.0023111743 -0.08112839
0.038226582 0.0050980533 -0.036446963 0.011513919 0.02682679 0.016411917 0.067846 0.038173005
0.07484763 -0.08974352 -0.08572963 -0.08459238 -0.04674284 -0.0030084685 -0.036326062 -0.0630252
-0.028739095 -0.0056082127 0.0022988822 0.03435487 -0.034908626 -0.010677432 0.06723005 0.06884018
-0.097646624 0.0059358003 0.014597212 -0.045335043 -0.019041846 -0.0632594 0.07554015 0.07573203
0.009971025 0.08094837 -0.058560096 0.0418036 -0.012063148 -0.023470141 0.024901787 -0.022080021
-0.022110198 -0.05157092 0.028827094 -0.10804818 -0.07608895 0.048346728 0.025473459 0.083344184

ff_1.bias f4 [100]
00000000: af17 babd f0cb 603d c3ea ba39 1f10 bcbd
00000010: ea3c 353e c52e 373c a00d 843d 0400 983e
00000020: 2969 11bd e2c4 0dbd 0995 d4bc 60d3 473e
00000030: 1129 3c3e 9f3d 463e f2f8 983e 080b 543e
00000040: ca59 373e b004 febc 5783 ae3e c833 503e
00000050: aa25 253d eb1c 973e c2c8 c33e 1926 523e
00000060: a81b b13e 54ae 77bc d393 893e 08e1 9d3e
00000070: 9f97 963e e3a1 473e 8205 7f3e eb38 0bbd
00000080: fc2b 1e3d 1a58 aebd 23c0 c8bd 64ed 483e
00000090: 9933 443e ad59 a53e 68b7 693e 3f89 9e3e
000000a0: f1cd 02bc c730 833e 928f af3c 64d5 653e
000000b0: 5d29 8b3b 6e0f 6e3e 5171 863d 25ce a6bd
000000c0: 3cd5 203e bb1d 853e 0dfe 953c 39fb 93bd
000000d0: b6bb 853e 1c44 8a3e ce15 a5bd b98f b43e
000000e0: 253c a1bd bc68 6e3e 543e 723e 631c b0bd
000000f0: 1c88 883e d04c 64bd 1a83 953e 321f 883e
00000100: 1b5d 923e 0fa5 933c e83e 873e b554 833e
00000110: 2c93 de3d 9e7b 88bd ed50 ec3e c112 cebd
00000120: 28fe acbd 67eb 953d 6134 903e a98a 873e
00000130: a6d9 343e 2f5b 24bd 0a31 7dbd 0db6 bfbd
00000140: 52e1 8cbc 2bba 8b3e 600a 8e3d 98bf 243b
00000150: 446e 703e ebaf ce3c 532e d7bd 53b2 843e
00000160: b276 b13e b42e ef3c e44b 493d bf82 833e
00000170: 06a5 4e3e c159 543e 103e 813d eede a4bd
00000180: 32e9 533e df61 443e e713 b0bb aff9 63bd
-0.090865485 0.05488199 0.00035651596 -0.09182762 0.17699018 0.011180584 0.06447911 0.29687512
-0.03550068 -0.03461159 -0.025949972 0.19514227 0.1837504 0.19359444 0.2987743 0.20707333
0.17905346 -0.031008095 0.3408458 0.20332253 0.040319122 0.2951425 0.38239104 0.20522346
0.34591413 -0.015117247 0.26870593 0.30835748 0.29412553 0.19495349 0.24904445 -0.033989828
0.038616166 -0.08512898 -0.09802272 0.19621807 0.19160308 0.3229498 0.2282387 0.30964085
-0.007983671 0.25623152 0.021430764 0.22444683 0.0042468742 0.23248073 0.06564582 -0.08144788
0.15706342 0.25999245 0.018309617 -0.07225651 0.26119775 0.27005088 -0.080607995 0.35265902
-0.078728 0.2328214 0.23656589 -0.08599164 0.26666343 -0.055737317 0.29201585 0.265863
0.2858666 0.018023042 0.2641518 0.25650564 0.108679146 -0.06664203 0.4615549 -0.10062171
-0.08446914 0.0732029 0.28164962 0.26472977 0.17661151 -0.040126022 -0.061814345 -0.09360895
-0.017197285 0.27290472 0.069355726 0.0025138613 0.23479563 0.025230369 -0.105068825 0.259173
0.3466087 0.029197074 0.04914464 0.2568569 0.20180139 0.20737363 0.063106656 -0.08050333
0.20694426 0.1917796 -0.0053734663 -0.05565804

ff_2.weight f4 [2, 100]
00000000: 2059 de3c 872f e73c c5ac 443d 3311 68bd
00000010: 953b c6be faed b13d 0471 d83c 5dc5 10bf
00000020: a739 01bd d694 063d 2c85 26bd 6d71 c1be
00000030: b685 d7be 2280 cebe 0270 d9be 38f5 bdbe
00000040: 875c d2be c63f 42bc 9b7f dcbe 0a19 c1be
00000050: e0f9 963d 2233 08bf d52d c4be 3278 eabe
00000060: da0b bdbe 4d20 bebb b801 bcbe bbf2 b0be
00000070: 01ee 01bf 2cf9 cebe c92c a9be 9efa 8e3d
00000080: b6a7 9ebb e312 d03d 2275 c93d 9b45 d9be
00000090: fe4d d5be e170 c7be 9e88 d8be 54e9 e3be
000000a0: 44c0 4c3d f31d b8be c0bb 953d 7be5 c2be
000000b0: ed2c 753d bd5d ebbe b2ce 8c3c a5bd 343c
000000c0: 970f e8be 55e4 efbe bc35 b23d adee aa3d
000000d0: 4fb6 c4be c4be 0abf 0e24 67bd 0c8a e6be
000000e0: 33e0 ab3c 0111 ddbe cf74 f5be 9a3d c0bd
000000f0: e71a e2be 0719 f73c 0dd8 03bf 7926 b8be
00000100: 7676 0abf 0243 0e3f e772 d8be 1481 98be
00000110: f45c 9ebe 8ace c6bc fe69 d3be a712 863d
00000120: ca9b 113d 1ff0 753d fd96 bdbe 88aa c4be
00000130: c53b cbbe 615a 223d b58c 9cbd 46a9 b0bc
00000140: 5dee f03d f703 cebe 45ba fbbc 04d1 a23d
00000150: 7247 f1be 6fea f2bc 7be0 b73d 13af c7be
00000160: a8e6 b4be a594 463d 7387 223d 79bd f2be
00000170: bb10 d4be 76ca e2be 4064 3a3c 7bd8 a8bc
00000180: f14a a7be a573 a2be 33ed 6a3c 596e 003b
00000190: dab6 b7bd 98d8 103d ee42 0e3c b3de 2d3d
000001a0: 0dd3 d7be f071 7d3d f6af a93c 578b bfbe
000001b0: 76b2 883d 72e3 843d 4890 9bbc ca43 04bf
000001c0: d904 dbbe 6309 dfbe 5d3d c1be 6662 fbbe
000001d0: 5f46 e4be 8875 393c 2a6c ccbe 9a21 d8be
000001e0: 5ec3 86bd 6851 bbbe 6223 0cbf b8e9 d2be
000001f0: 1ee3 bdbe 2d37 4c3d c88e c1be 371a e2be
00000200: 1166 c4be 807d e7be 870b dcbe 2b49 833d
00000210: f6b1 7c3b 63fa 363d 55a7 a23d 0433 e5be
00000220: 632c d2be 7ff2 03bf d2a2 d4be 4584 d5be
00000230: e58b 443c 9ff0 c6be bcc1 a93d b3a3 b7be
00000240: 615f 503b 422f d2be 8ba5 723c 44a6 903d
00000250: 8d4a c6be 3242 ddbe 9869 803d 797f 8d3d
00000260: 84d0 cfbe bd59 b5be 0ad3 b9bb fd53 cbbe
00000270: b87d 5c3d 09ae eebe e121 bebe 57ba 913d
00000280: 8316 e2be e008 a23c 2654 d3be 61e3 c2be
00000290: e1d8 c5be 91e9 00bf 22b4 c9be 2051 d5be
000002a0: a869 eebe e69f 8f3d e9d3 cbbe f886 263b
000002b0: a288 ca3d 5efd 4a3c b852 e9be 9f1c cabe
000002c0: 8de8 c9be 983b c13c 93e1 95bc f165 993d
000002d0: af4f 8fbe ddc4 d2be f590 fb3c a1a4 5b3d
000002e0: c390 d5be 74a1 d33c 7914 c03d 4b8c cdbe
000002f0: 62ca cfbe c991 033d 72a5 a43c c3f4 bfbe
00000300: 13af d4be a60e bcbe f134 d53b 9c65 133d
00000310: 498e d2be 7e0c bfbe 8768 43bd ad5b 403d
0.027142107 0.028220905 0.04801633 -0.056657027 -0.38717332 0.086879686 0.026421078 -0.5655115
-0.031549122 0.032856785 -0.040654346 -0.3778185 -0.420942 -0.40332133 -0.42468268 -0.3710115
-0.41086218 -0.011856025 -0.43066105 -0.37714416 0.073718786 -0.5320302 -0.38316217 -0.45794827
-0.36923105 -0.0058021904 -0.3672006 -0.3456019 -0.5075379 -0.40424478 -0.3304198 0.06981395
-0.00484177 0.10159852 0.098367944 -0.42435917 -0.41661066 -0.38953307 -0.4229173 -0.44513953
0.049988046 -0.3596035 0.07311201 -0.38065705 0.059857298 -0.45969954 0.017188404 0.011031543
-0.45324394 -0.4685389 0.08701655 0.08346305 -0.3842034 -0.54197335 -0.05643087 -0.45027196
0.02098093 -0.43177035 -0.4794068 -0.093867496 -0.4416115 0.030163301 -0.5150154 -0.35966852
-0.5408701 0.55570996 -0.42275164 -0.2978598 -0.30930293 -0.024268407 -0.41291803 0.065465264
0.035548963 0.06004345 -0.37029257 -0.38411355 -0.39694038 0.039636973 -0.07644025 -0.02156509
0.11764214 -0.402374 -0.030728469 0.07950023 -0.4712482 -0.029652802 0.08978363 -0.3900076
-0.35332227 0.048481602 0.039679956 -0.4741018 -0.41419014 -0.4429509 0.0113764405 -0.020611038
-0.32674363 -0.31728855 0.014338779 0.0019597022 -0.08970423 0.03536281 0.0086829495 0.04244871
-0.42153206 0.061876237 0.020713788 -0.37410995 0.06674664 0.06488694 -0.018989697 -0.5166594
-0.42777136 -0.4356185 -0.3774213 -0.4909851 -0.4458494 0.011319526 -0.39926273 -0.42213136
-0.06580232 -0.36585546 -0.5474149 -0.41193938 -0.3708734 0.049857307 -0.37804246 -0.44160625
-0.3835912 -0.45212936 -0.42977545 0.0641044 0.0038558221 0.04467238 0.07942072 -0.44765484
-0.4104949 -0.51541895 -0.41530472 -0.41702476 0.011996244 -0.38855454 0.08288905 -0.3586708
0.0031795132 -0.4105168 0.014809976 0.07062963 -0.38728753 -0.43214566 0.062701404 0.06909079
-0.40588772 -0.35420027 -0.00567091 -0.39712515 0.053830832 -0.46617153 -0.37135223 0.0711562
-0.441578 0.019779623 -0.41275138 -0.380641 -0.38642028 -0.50356394 -0.39395243 -0.41663456
-0.46564984 0.0701292 -0.39810112 0.0025410037 0.09889342 0.012389509 -0.45570922 -0.3947496
-0.39435235 0.023587987 -0.018296039 0.07490147 -0.2799048 -0.4116582 0.03070877 0.0536238
-0.41712007 0.025833823 0.09378905 -0.40146098 -0.40584093 0.032121453 0.020098422 -0.37491426
-0.4153982 -0.36729926 0.0065065552 0.035985574 -0.4112418 -0.37314218 -0.047707107 0.04696243

ff_2.bias f4 [2]
00000000: 2acb acbd f821 5cbd
-0.08437188 -0.053743333
