RCA/Models/CQL_DEN_Cont_sample.pth (torch, 59927 bytes, 6 tensors)

head.weight f4 [100, 32]
000000 3e 24 23 3e 52 c1 1e be ed 06 b9 bd bd 42 18 3e
       0.15931794 -0.15503433 -0.09034524 0.14869209
000010 b5 a7 24 3e 63 e5 01 3f 91 f6 23 3f 17 59 f9 3e
       0.160796 0.5074064 0.64048105 0.48700783
000020 08 02 dd 3e 68 96 f5 3e 5a 65 b1 3e 33 64 95 3e
       0.43165612 0.47966313 0.34647638 0.29178008
000030 7d 82 ed 3e cf 76 b3 3e 1b 4a 07 3f a4 ca ef 3e
       0.46388617 0.3505158 0.5284745 0.4683429
000040 2f 6f 02 3f 3a 40 fe 3e 46 93 1e 3f 00 19 d3 3e
       0.509509 0.49658376 0.6194347 0.4123001
000050 2e 1b 73 3e e9 95 3d 3e c7 3f 86 3e e1 e7 75 3d
       0.23740837 0.18514217 0.26220533 0.06003559
000060 ac ab 83 3d c9 0c 4a 3e a5 72 fb 3e 43 5c 4a 3f
       0.06429228 0.1973144 0.49110904 0.7904703
000070 50 87 f1 bd 4c 51 d7 bd 2e c4 36 3f e5 76 52 3f
       -0.11793387 -0.10513553 0.71393096 0.8221267
000080 74 b9 7c 3e f1 52 07 be ee f0 82 be 42 84 a7 bd
       0.2468012 -0.13215233 -0.2557444 -0.08179523
000090 a8 c0 cc 3e 6c 41 e7 3d 5c 9f 48 3f f2 08 f3 3e
       0.39990735 0.11291775 0.78368163 0.47467762
0000a0 a4 92 cb 3e e6 4a f8 3d 49 8e 06 3f 00 21 f7 3e
       0.39760315 0.12123661 0.5256086 0.48267365
0000b0 29 c4 0e 3e cf e3 c9 3e a2 c2 67 3e ae c3 d5 3e
       0.13942017 0.39431617 0.2263284 0.41750854
0000c0 b2 4c 50 3e 6e 02 89 3e c2 ff f2 3d b1 f9 01 3e
       0.20341757 0.26759666 0.11865188 0.12692906
0000d0 ec c8 92 3e 2a 1b 3e 3e 3c fb 06 3f 14 81 c2 3e
       0.28668916 0.1856505 0.52727103 0.37989104
0000e0 de 54 0e 3e a1 34 16 3d fa f1 eb 3e b0 99 88 3e
       0.13899562 0.036671285 0.4608305 0.26679754
0000f0 ee fe 13 3c 54 d2 d4 bd d0 02 bd 3e a5 4a 36 3f
       0.009032948 -0.103916794 0.36916208 0.7120765
000100 3b a7 a4 be ad be 08 be 22 cb a1 bd f8 22 99 bd
       -0.32158837 -0.13353987 -0.07900073 -0.07477373
000110 c8 62 65 be 1f 64 06 3d 62 1f fe 3e a5 a5 8e 3e
       -0.22400963 0.032810327 0.49633318 0.27860752
000120 db bb 11 3f 89 d7 06 3f a3 6c 03 3f 2e 2e a5 3e
       0.5692727 0.5267263 0.5133764 0.32261795
000130 60 25 d2 3e a5 91 bb 3e 71 3e 6d 3e 2f 39 6f 3e
       0.4104414 0.36634555 0.23168351 0.23361658
000140 5b 99 49 3e 0f 06 ab 3d 81 8b af 3e 34 7e 9e 3e
       0.19687407 0.08350765 0.3428612 0.3095566
000150 94 e5 b9 3e d2 30 58 bd 8c 2f 08 bf 79 0d 54 be
       0.36307967 -0.052780934 -0.5319755 -0.20708264
000160 87 6a f7 bd 8b 01 0c 3e cb 11 3b be 5c 34 8f bd
       -0.12080865 0.13672464 -0.18268506 -0.06992409
000170 df 2f 23 3d 1c ec 51 be ef bc d4 3e 60 f2 b3 3e
       0.039840575 -0.20500225 0.41550395 0.35145855
000180 52 14 65 bc ae 0f 2e be fc d3 a2 be 09 9b c5 be
       -0.0139818955 -0.16998169 -0.31802356 -0.38594845
000190 68 29 dc bc de 0c c1 3d 97 94 bb 3e f3 f5 02 3f
       -0.026875213 0.09426282 0.36636803 0.5115654
0001a0 0d c5 ba 3e e3 9d c1 3e 13 5f 37 3f 98 e2 16 3f
       0.36478463 0.3781577 0.71629447 0.58939505
0001b0 da 8f 26 3f e8 2d fa 3e 01 c4 ff 3e 7e 19 0a 3f
       0.6506325 0.4886315 0.49954227 0.5394515
0001c0 41 52 1d 3f 02 fd c8 3e 80 b8 24 3f a1 4e 15 3f
       0.61453635 0.3925553 0.64344025 0.58323103
0001d0 f6 99 02 3f ea ce f3 3e ad fb 89 3d 03 cb 81 bd
       0.51016176 0.476188 0.067374565 -0.063375495
0001e0 5e a9 dc bc 80 b1 19 3d c9 d3 fb 3e d3 4d 22 bc
       -0.02693623 0.037522793 0.49185017 -0.00990625
0001f0 75 e5 87 3e 8a 1c ac be e3 9a 14 3f 7b 3a 19 3f
       0.2654225 -0.33615524 0.5804884 0.5985486
000200 a2 e8 63 3e f8 69 3e 3e 0a 50 1e be a6 2a 5e 3e
       0.22256711 0.18595111 -0.1546022 0.21695957
000210 b4 a2 d5 3e e8 be e5 3e 48 ed 13 3f a1 12 34 3f
       0.41725695 0.44872212 0.5778394 0.70340925
000220 b6 49 3b 3f 11 7e 37 3f 2a 02 f4 3e 06 43 b8 3e
       0.7315935 0.7167674 0.476579 0.35988635
000230 58 a2 d1 3e a1 1f 00 3f fd ec e9 3e 1a 54 dc 3e
       0.4094417 0.5004826 0.4568862 0.43032914
000240 42 e3 eb 3e 49 29 fc 3e 5f de 1c 3f d6 a1 09 3f
       0.4607182 0.49250248 0.6127681 0.5376257
000250 66 32 f8 3e 1f 82 e0 3e e8 3a 8e 3e 3b 77 da 3e
       0.4847595 0.43849275 0.27779317 0.4266909
000260 c4 fa 58 3d f5 49 84 3e d5 1c 26 bf 40 ca e3 be
       0.052973524 0.25837675 -0.64887744 -0.44490242
000270 d6 5d 84 bd 06 0a fc be 5b 2b 1e 3f 24 a0 3c 3f
       -0.0646321 -0.49226397 0.61784905 0.73681855
000280 f7 6a 3f bd 7d d8 44 be 36 de 05 bf f6 e6 23 be
       -0.04673287 -0.19223209 -0.5229219 -0.16006073
000290 e6 87 7a 3e 8c 31 38 3f cc ea 46 3f 59 56 4b 3f
       0.24465904 0.719506 0.7770202 0.7942863
0002a0 75 55 2f 3f e0 1b 33 3f 4e e7 4f 3f 65 c9 71 3f
       0.6848977 0.6996441 0.8121232 0.9444793
0002b0 c8 8d 4e 3f d2 9a 59 3f e9 1b 51 3f b0 39 50 3f
       0.8068509 0.8500186 0.8168321 0.81338024
0002c0 63 4d 51 3f d2 06 61 3f ef 25 4b 3f 07 b7 4f 3f
       0.8175871 0.8790103 0.7935476 0.8113865
0002d0 39 91 28 3f 59 9c 1a 3f fa 40 af 3e bd e2 a6 3e
       0.6584659 0.6039482 0.3422926 0.32594863
0002e0 d9 64 1e be 98 56 33 3e ed 20 9b be 36 32 27 bf
       -0.15468158 0.17513502 -0.30298558 -0.6531099
0002f0 dc 16 0b 3b 82 9a 07 bf 35 0c 81 3f b3 be 69 3f
       0.0021223342 -0.52970135 1.008185 0.9130661
000300 4e 6a ac bd d5 91 26 be 10 b9 56 bc 7d 80 a2 be
       -0.084187135 -0.16266568 -0.013105646 -0.31738654
000310 15 fa 06 3e 86 c0 f7 3e 60 0a 37 3f 2f 89 ac 3e
       0.13181336 0.4838907 0.71500206 0.33698413
000320 38 63 be 3e 33 a1 9d 3e 08 35 fe 3e e9 84 c0 3e
       0.37185073 0.30787048 0.49649835 0.37601402
000330 5f d3 12 3f 63 70 02 3f c1 9f 18 3f 9f ef f9 3e
       0.57353777 0.5095274 0.59618765 0.4881563
000340 50 f7 09 3f 3c 8d 16 3f d9 50 1a 3f 8e 1d 01 3f
       0.53892994 0.58809257 0.60279614 0.5043572
000350 dc 3a 93 3e e7 60 ae 3e 0b 48 a8 3e 37 b6 1f 3e
       0.28755844 0.34058306 0.32867464 0.15596853
000360 da 94 a5 3e e8 99 f6 bc 64 37 fd be 5b 16 58 3f
       0.32340127 -0.030102685 -0.49456322 0.8440911
000370 72 1a 14 be 90 ec f2 bd 14 f2 0b 3f 63 a3 fe 3e
       -0.14463213 -0.11861527 0.54666257 0.4973403
000380 91 74 95 3e a1 54 d0 3d 88 bf 9f 3b f4 f6 0e 3e
       0.29190496 0.10172392 0.004875127 0.13961393
000390 e1 33 c5 3e d2 6e 0b 3f da dc 18 3d 95 c5 03 3e
       0.38516143 0.54465973 0.037319995 0.1286834
0003a0 25 b3 ea 3e 67 83 fe 3e 42 02 ac 3e 05 1d d1 3e
       0.458398 0.49709627 0.33595473 0.40842453
0003b0 b1 ed a6 3e cc b2 02 3f 25 8d db 3e cc 80 44 3e
       0.3260322 0.5105407 0.42881122 0.19189757
0003c0 95 8d 18 3e 54 58 b8 3e 67 55 ff 3e 69 41 cb 3e
       0.1489776 0.3600489 0.49869844 0.3969834
0003d0 75 ef b6 3d 6a 2d 8b 3e b6 e8 a0 3d ef 4f fa 3d
       0.089323916 0.27183086 0.07856886 0.122222774
0003e0 4b b4 af bd 4e 74 5c 3e a9 b4 9d 3f 0d ad da be
       -0.0857931 0.21528742 1.2320758 -0.42710152
0003f0 eb 81 74 3e 4a 3f 44 be 88 5c 0e 3f 96 54 e3 3e
       0.23877685 -0.19164768 0.5560994 0.4440047

head.bias f4 [100]
000000 6d 12 01 3f b8 81 09 3f 52 bd 11 3f 91 67 15 3f
       0.5041874 0.5371356 0.56929505 0.58361155
000010 be 92 1d 3f a3 44 7c 3f cc b9 3c 3f 01 ad 24 3f
       0.61552036 0.9854223 0.73721004 0.64326483
000020 5e 2f 0e 3f 11 dc 34 3f 55 39 2a 3f a2 a6 56 3f
       0.55541027 0.70648295 0.6649373 0.8384801
000030 6c 18 3a 3f f1 b3 ad 3e 27 7e 4c 3f be 74 28 3f
       0.72693515 0.33926347 0.79879993 0.65803134
000040 af 3d 1c be 69 cb a5 3f f3 89 23 3f 05 d0 25 3f
       -0.15257905 1.2952701 0.6388237 0.6477054
000050 d4 bb 4d 3f d3 c6 40 3f 97 c4 ee 3e 4d ee 02 3f
       0.8036473 0.7530338 0.4663436 0.5114487
000060 07 86 34 3f 10 fa 1a 3f 23 cf e8 3e 65 8b 01 3f
       0.7051701 0.60537815 0.45470533 0.50603324
000070 7d 92 45 3f 9d 21 a9 3e f4 42 20 3f d0 8a 47 3f
       0.7717665 0.33033457 0.6260216 0.77946186
000080 17 21 0f 3f d9 44 1e 3f d9 c3 93 3f 4f 03 81 3f
       0.55909866 0.61823803 1.1544143 1.0079135
000090 3b a4 0c 3f d6 5a 0e 3f 98 a1 1d 3f 51 c3 49 3f
       0.54938096 0.55607355 0.615747 0.78813654
0000a0 15 8f 03 3f ad e1 1e 3f f2 78 e7 3e f9 78 30 3f
       0.513902 0.62063104 0.4520946 0.6893459
0000b0 11 de 4f 3f cb a8 44 3f 46 7c 30 be a1 ee 12 3f
       0.8119822 0.7682006 -0.17234907 0.5739537
0000c0 ea 3f 1b be 15 6b 3d 3f 70 19 fe 3e 78 be 19 3f
       -0.151611 0.7399152 0.49628782 0.6005626
0000d0 16 6b 98 3f 79 1a 09 3f 5f cf f5 3e be 93 02 3f
       1.190768 0.5355602 0.48009774 0.51006687
0000e0 3b 2c 18 3f 1f cf ff 3e e0 43 53 3f be 64 13 3f
       0.5944249 0.49962708 0.82525444 0.57575595
0000f0 93 cc 25 3f 3c b4 2b 3f 9c d8 55 3f ce 9c 7b 3f
       0.6476528 0.6707189 0.83533645 0.9828614
000100 d2 d5 10 3f 24 49 3e be 96 d0 65 3f a2 79 10 3f
       0.56576264 -0.18582588 0.897714 0.56435597
000110 a4 24 4a 3f d6 66 9d be 2c 3f 46 3f 50 15 2b 3f
       0.7896216 -0.3074252 0.7744014 0.66829395
000120 82 e4 f2 3e f3 6b a6 3f 3b d8 37 3f 45 2d fb 3e
       0.47439963 1.3001693 0.71814317 0.49057975
000130 2c bd 36 3f 47 3b 11 3f 2f 8c 72 bd 50 cd 3c 3f
       0.71382403 0.56731075 -0.05921572 0.7375078
000140 64 88 f9 3e fe f6 0a 3f 95 0f 39 3f 28 46 1c 3f
       0.4873687 0.5428313 0.722894 0.6104455
000150 bb e5 09 3f bb 5b 2e 3f 27 6a 2d 3f 7b fd 50 3f
       0.53866166 0.6810872 0.677401 0.8163678
000160 92 2a 1e 3f 20 a7 11 3f b3 63 33 3f a0 db 0f 3f
       0.6178371 0.5689564 0.70074004 0.56194496
000170 b2 12 44 3f e6 26 45 3f f8 46 79 3f 83 52 43 3f
       0.76591027 0.7701248 0.97373915 0.7629778
000180 e2 6e 1a 3f 42 80 e2 3e ed 0f 30 3f 5a 37 0f 3f
       0.60325444 0.44238478 0.687743 0.55943835

ff_1.weight f4 [100, 100]
000000 0b 64 82 bd 32 ef 53 3d b2 44 71 bd f7 a1 8a 3d
       -0.06366738 0.051741786 -0.058903404 0.067691736
000010 da 76 7e 3b fc cb 6d bd ab 07 aa bc ef c5 58 bd
       0.0038828165 -0.058055863 -0.02075561 -0.05292314
000020 1f a6 d1 39 6a fb ca 3c 9d 8b bb bd 72 23 30 3c
       0.00039987356 0.024778087 -0.091574885 0.010750638
000030 bd d7 49 3d 7d f2 79 bd 18 cd c9 ba e7 e0 27 3d
       0.04927801 -0.06102227 -0.0015396206 0.040985968
000040 a0 25 9f bd 81 58 98 3d 6b 3d cf bd ae 08 99 bc
       -0.07770848 0.07438756 -0.101191364 -0.018680897
000050 3e 64 01 3d ca 0a fe bc ca 01 e0 bd a6 aa a2 bd
       0.03158974 -0.031011004 -0.10937841 -0.07942705
000060 d4 76 bb bc 86 b7 5a bd b9 c0 17 bd ed 8c 4d 3d
       -0.02288381 -0.053397678 -0.03704903 0.050183225
000070 ec 6a 73 bd d3 28 01 bc 68 6b cc bd 05 b8 5f bd
       -0.05942814 -0.007883268 -0.099814236 -0.054618854
000080 bb ab 83 3d b1 97 b8 3c 13 01 65 bc 2d cd 25 bd
       0.06429239 0.02253327 -0.013977307 -0.040478874
000090 73 c6 b1 bd d9 a0 08 3d 26 00 73 bd 6e 9c 2d bc
       -0.08680429 0.03335652 -0.059326313 -0.010596378
0000a0 33 20 91 bd 78 ec 5b bd e2 03 18 bc 3e d4 a8 bc
       -0.0708622 -0.05369231 -0.0092782695 -0.020609017
0000b0 4f a0 48 bc d7 a4 09 bd f2 ab 1f 3d 85 36 9b 3b
       -0.012245252 -0.03360447 0.03898234 0.004736724
0000c0 cb 0b b8 3d 36 85 12 bc 80 46 db bd a8 68 d6 bb
       0.08986624 -0.008942893 -0.10706806 -0.0065432377
0000d0 1f 05 a7 3d 96 46 03 bd f7 8e 3a bb 38 e1 1f bc
       0.08155274 -0.032049738 -0.0028466561 -0.009758286
0000e0 a7 a5 b1 bd 79 97 9e 3d 7f de 09 bd 7b d7 b1 bd
       -0.08674174 0.07743735 -0.033659454 -0.08683678
0000f0 75 1a ae bd e4 88 66 bd f7 30 ef bd 95 41 9d 3d
       -0.0850114 -0.056282893 -0.11679261 0.076785244
000100 12 65 94 3d d8 c2 a8 bd b5 99 53 bd d2 a2 46 3d
       0.0724584 -0.082402885 -0.05166026 0.04849512
000110 28 f5 35 bd 98 47 ba 3d f2 0c 66 bd ce 70 26 bd
       -0.044423252 0.09095687 -0.05616469 -0.040634923
000120 5c fa c4 bd c8 5b fe bc c5 98 51 3d de 56 09 bd
       -0.09618065 -0.031049624 0.051171083 -0.03353011
000130 c5 e7 d1 bd 20 b0 1e 3d 6a b2 64 bd 3e 15 54 3c
       -0.10249285 0.038742185 -0.05583421 0.012944518
000140 65 cc a2 3d aa ca 01 3d bf bf 9e 3d 19 74 a3 bd
       0.079491414 0.031687416 0.077514164 -0.07981128
000150 1b e7 c0 bd e4 1e ec bd f8 48 4a 3d 49 fc d6 bc
       -0.0941908 -0.115293294 0.049385995 -0.026243346
000160 29 0a b8 3c 11 51 a5 bd c7 c6 83 39 6f 16 a3 3d
       0.022465782 -0.08072103 0.00025134368 0.07963263
000170 7b ef 2c 3c 68 78 88 3d 55 69 8b bd 76 36 9b 39
       0.0105551435 0.06663591 -0.068072 0.0002960448
000180 b9 b8 06 bd 88 2b d1 bd 4e 0f 76 bd 60 e0 c6 bc
       -0.03289101 -0.10213381 -0.06007319 -0.024276912
000190 98 13 23 3e 98 8e 7c 3e 26 d9 7a 3e 9c 5a ca 3e
       0.15925443 0.2466377 0.24496898 0.39522254
0001a0 2b 19 11 3f 74 a5 34 3f ce e8 17 3e 4a 40 be 3e
       0.5667903 0.7056496 0.14834902 0.37158424
0001b0 69 ed d8 3e 88 5b df 3e 0a 31 36 3f c5 5d 2a 3f
       0.4236863 0.4362452 0.7116858 0.6654933
0001c0 e6 fa 36 3f 6a 51 3b 3e 2f a6 d4 3e 4e 8f 0d 3f
       0.7147659 0.18292776 0.41533038 0.5529679
0001d0 14 67 17 bd 48 7b 82 3f f7 14 be 3e c7 15 f2 3e
       -0.036963537 1.0193872 0.3712537 0.4728224
0001e0 f9 27 5c 3f 6e 6c cb 3e 73 aa 51 3f fb b2 7d 3e
       0.85998493 0.39731163 0.8190071 0.24775307
0001f0 28 11 ce 3e 5d 3b bd 3e 41 eb af 3e 25 86 87 3d
       0.40247464 0.36959353 0.34359172 0.06617383
000200 14 09 ec 3e 2d e2 52 3e 7a e6 d1 3e 95 5c 93 3e
       0.46100676 0.20594092 0.40996152 0.28781572
000210 bf 2f ab 3e 4f f5 62 3e c4 ab 47 3f 39 7b 5f 3f
       0.33434865 0.2216389 0.7799647 0.872974
000220 dd f9 d1 3e f7 51 b4 3e c4 04 c7 3e 36 e6 45 3f
       0.41010943 0.35218784 0.38870823 0.773044
000230 dc 12 8f 3e 44 f0 7b 3e 6b d7 3f 3e f7 01 05 3f
       0.27944076 0.24603373 0.18734519 0.51956123
000240 12 b0 64 3f dd ce 1e 3f c7 c3 24 bd a7 d1 c5 3e
       0.8933116 0.620344 -0.04022577 0.38636515
000250 82 00 ae bd 6a 8c 14 3f 78 5f be 3e 37 9d b9 3e
       -0.084961906 0.58026755 0.37182212 0.36252758
000260 18 bc 3c 40 98 48 1f 3f 5d f3 af 3e cf 4d 77 3e
       2.9489803 0.62220144 0.3436536 0.24150775
000270 12 4f 9f 3e ec b6 10 3e b4 b2 04 3f aa 1a ea 3e
       0.31115013 0.14132279 0.5183518 0.45723468
000280 1e 00 9f 3e 4e 45 06 3f dc 11 36 3f 79 7e 52 3f
       0.31054777 0.524495 0.71121 0.8222423
000290 02 05 8d 3d ad 3f 76 3e 3e 63 3d 3f 4c fe 27 3f
       0.06885721 0.24047728 0.73979557 0.656224
0002a0 e3 26 08 3f 8a 0b b8 bf d2 e3 30 3f 74 32 1c 3f
       0.53184336 -1.4378521 0.69097626 0.61014485
0002b0 cc ef 92 3e ce b5 81 40 6b 15 84 3e e7 a0 92 3e
       0.28698575 4.053443 0.2579759 0.28638384
0002c0 24 26 cd 3e 31 e2 87 3e 9d 3f 0d 3d 74 29 bf 3e
       0.4006816 0.26539758 0.034484494 0.37336314
0002d0 fd 0e 31 3e aa 16 54 3e b4 90 d3 3e db 9a 10 3f
       0.17290874 0.2071177 0.41321337 0.5648629
0002e0 ea 12 68 3d f1 13 a0 3e 8d 54 3f 3e 88 bc 22 3f
       0.056658663 0.31265214 0.18684597 0.63568926
0002f0 7f 22 96 3e c9 d3 06 3e 58 33 0e 3f 81 13 92 3e
       0.29323193 0.13166727 0.55547094 0.28530505
000300 7d 64 16 3f 44 b8 b5 3e 7a ee 5f 3f 82 ee 31 3f
       0.5874708 0.35492146 0.8747326 0.6950456
000310 37 81 8b 3e c7 fd cd 3e ac c0 3a 3f 81 f4 9c 3e
       0.2724702 0.4023268 0.72950244 0.30655292
000320 e7 42 9b 3d 82 f1 d8 bd 2e c2 a4 bd 01 11 2c 3c
       0.0758112 -0.10592939 -0.08044849 0.010502101
000330 2f 04 e2 bb 34 9e 8e 3d 84 c7 30 3d f2 7c aa bd
       -0.0068974714 0.069637686 0.043159023 -0.08324613
000340 3c e5 a4 3d be 63 aa 3c 8e 92 2e 3d d3 bb a7 bc
       0.080515355 0.020799514 0.042620234 -0.020475304
000350 b2 5d 7b 3d 15 18 97 bd 1d 9c 16 3d f9 05 b6 3d
       0.06136865 -0.0737764 0.036769975 0.08887858
000360 44 58 ee 3c 16 1c 24 bd e2 99 45 bc ca 05 93 3d
       0.029094823 -0.040065847 -0.012060614 0.071788386
000370 50 81 86 bd 56 1a 89 bd ff f6 2f 3c 81 67 52 bd
       -0.06567633 -0.06694476 0.010740041 -0.05136824
000380 39 10 09 bd 9b 66 4b bd 16 c4 2c 3d cd 5c bc bd
       -0.033462737 -0.0496584 0.04217919 -0.09197388
000390 5e d9 ab bd e1 e3 93 3d cf dd 02 bd d1 c5 ca bd
       -0.08391069 0.07221199 -0.031949814 -0.09901012
0003a0 8c fc 1c 3d 1c ef 92 bd 6f 53 3a bc d2 bc 78 3d
       0.038326785 -0.07174513 -0.011372431 0.060726948
0003b0 61 54 89 bd 01 62 ba bd 03 44 e8 3b ab 02 68 bd
       -0.06705547 -0.09100724 0.0070881858 -0.05664317
0003c0 60 7c 14 bd 25 4a 79 3d a3 74 28 3c 6a ff a2 3c
       -0.036251426 0.060861725 0.010281715 0.019897182
0003d0 9c dd cc bd 41 22 92 bd 88 c8 8d bd 3f 7b ab 3d
       -0.10003206 -0.0713544 -0.06923014 0.08373117
0003e0 9d eb 19 bd ed a2 b9 3d 5a 75 b9 3d 26 86 88 bd
       -0.037578214 0.09064279 0.09055586 -0.06666212
0003f0 90 31 19 3d c3 09 ce bc e3 41 b4 3d 0a bf 79 3d
       0.037400782 -0.02515114 0.088016294 0.060973205

ff_1.bias f4 [100]
000000 f1 b0 79 3b 57 7d 66 3e 45 ef 28 bc 30 38 1c 3c
       0.003809985 0.22508751 -0.010310953 0.0095348805
000010 29 a3 03 3e df eb 17 bd d2 56 5a 3d 4a e5 f3 3d
       0.1285521 -0.03709018 0.053305455 0.11908968
000020 1d e1 a1 3d 5e 46 ce 3e c0 c2 4d bd 02 6d c8 bd
       0.07904265 0.4028806 -0.050234556 -0.097864166
000030 f9 33 9d bd 1a 59 69 3e 2f e2 bf bd 54 11 03 3e
       -0.076759286 0.22787896 -0.09369313 0.12799579
000040 bc 37 33 3e 58 86 2b 3e a2 f2 6b 3e 02 14 0e 3e
       0.1750173 0.16750467 0.23041776 0.1387482
000050 b0 33 27 3e 7f f5 32 3e f2 0a fe 3c be 6c 5c 3d
       0.16328311 0.17476462 0.031011079 0.053814642
000060 dd e5 63 3e dd 50 24 3e 5c 2f 05 3d 3d 16 3c 3e
       0.22255655 0.16046472 0.03251587 0.18367858
000070 78 55 5d 3e 0b 07 4d 3e ca 69 47 3e 88 d1 36 3e
       0.21614635 0.20022218 0.19473949 0.17853367
000080 3e 6a 11 3e 18 49 d3 bd a7 40 0e 3e 25 5b 2a 3e
       0.14200684 -0.10316676 0.1389185 0.16636331
000090 da ac 8d bc 66 87 2d 3e cd 24 48 3e 86 e5 c5 bd
       -0.017294336 0.16946182 0.19545288 -0.09662919
0000a0 06 ff 87 3d 6a c5 a2 bd ee 3a 4b 3e 0e 6f 81 3e
       0.06640439 -0.0794781 0.19846699 0.2528004
0000b0 c8 85 5e 3e e4 cc aa 3d 28 0c c4 bd a7 2e 3f bc
       0.21730721 0.08339861 -0.09572631 -0.011668838
0000c0 9a 4d 3d 3c bc c6 3e bd 32 9c 5f 3e 2f 52 78 3e
       0.011554146 -0.046576247 0.21836928 0.242501
0000d0 3c fc ca bd c3 53 75 3e ad 5b c9 3d 42 7a 18 3e
       -0.09911391 0.23957734 0.09831939 0.14890388
0000e0 85 0a ea 3b 0c fd 40 3e c6 90 d6 bd 4e ab 47 3e
       0.0071423673 0.1884653 -0.10476832 0.19498941
0000f0 8d 5e d0 bd 85 a6 9d 3c 41 99 76 bc 92 ea b2 bd
       -0.10174284 0.019244442 -0.015051187 -0.08736147
000100 39 74 5e 3e b8 ab 99 3e 9b 09 1b bc 63 1c d4 3d
       0.21724023 0.30013824 -0.009462739 0.10356977
000110 c4 74 06 3c cc 7e f6 bc 8e 22 18 3e 46 48 9b 3d
       0.00820655 -0.030089758 0.14856932 0.075821444
000120 e1 ac 24 3e 54 c2 e8 3d f1 d6 1b 3e 27 b8 a4 3e
       0.16081573 0.1136519 0.15218712 0.32171747
000130 0c d3 05 3e 46 c2 61 3e 51 05 98 3d 07 60 9e 3d
       0.13068789 0.22046766 0.07422889 0.077331595
000140 99 f0 98 3d 08 14 bc bd 4e 5f 7e 3d d2 79 ae 3d
       0.07467765 -0.09183508 0.06210261 0.08519329
000150 91 89 24 3e 62 fd cd 3d 7a c4 4e bd 0d de 84 bd
       0.16068102 0.100580946 -0.050480343 -0.06487665
000160 fe fb c5 3d 4b 43 38 3e 8c 8d 4e 3d 48 7f 3f 3e
       0.09667204 0.1799442 0.05042796 0.18700898
000170 0d c0 94 bd 97 1d 1a 3e 9a 19 3d 3e 98 8b 92 3d
       -0.07263193 0.1505035 0.18466797 0.07155532
000180 2c 21 42 3e 72 46 6e 3e 82 4f 46 bd 45 01 d2 3d
       0.18957967 0.2326906 -0.04841567 0.102541484

ff_2.weight f4 [11, 100]
000000 70 7e 6b bd 9b b8 72 be 35 a3 7d bd 40 14 a9 3d
       -0.057493627 -0.23703234 -0.061923224 0.082558155
000010 ac 37 72 be 12 8b 2e 3d 84 74 6c be 9b 95 43 be
       -0.2365405 0.042613097 -0.23091322 -0.19100039
000020 8c 47 99 be b6 d1 5a be 62 f8 b4 3d 63 28 4e bd
       -0.29937398 -0.21369061 0.08836438 -0.050331485
000030 06 84 6d be b6 10 8c be 3d a8 35 be 20 e5 6c be
       -0.23194894 -0.273565 -0.17739959 -0.23134279
000040 5e 7e 38 be b8 34 8d be 61 0e 83 be c2 15 5e be
       -0.18016955 -0.27579284 -0.25596908 -0.21687987
000050 16 95 c3 be 95 e6 90 be 90 95 80 be bb 32 ab bd
       -0.3819968 -0.2830092 -0.25114107 -0.083592854
000060 db f5 7a be 3e b5 cd be c4 1f ab bd 69 3c 8a be
       -0.24507849 -0.4017734 -0.08355668 -0.26999214
000070 40 b9 7a be 7d 26 9f be dc 0f 9d be f8 40 92 be
       -0.2448473 -0.31084052 -0.30676162 -0.28565192
000080 bf 49 d4 be 3e fa 89 bd a1 9f 51 be 62 80 28 be
       -0.41462514 -0.06737183 -0.2047105 -0.16455224
000090 0d 89 e9 bd 12 02 0f be ee f8 82 be 25 44 29 bd
       -0.114030935 -0.13965634 -0.25580543 -0.041324753
0000a0 35 62 c6 be 13 55 6c bd 3b 2f 85 be 67 29 ab be
       -0.387468 -0.05769832 -0.26012596 -0.33430025
0000b0 61 21 ae be b2 16 b3 be 00 90 49 b9 d3 90 94 bd
       -0.3400984 -0.34978253 -0.00019222498 -0.072541855
0000c0 19 d7 07 bd 07 3c 99 3d dd 4a ab be 79 b2 a3 be
       -0.033164117 0.074821524 -0.33455554 -0.319721
0000d0 61 34 94 bd f8 31 bd be ff 73 7d be 07 af 83 be
       -0.07236553 -0.36952186 -0.2475128 -0.25719473
0000e0 d0 27 d4 be 5f bc 5a be 44 f0 74 3c dd 71 6c be
       -0.41436625 -0.2136092 0.014949862 -0.2309031
0000f0 a5 9d 65 bd d1 e6 ee bd 8c d2 a9 bd d4 8d c0 bd
       -0.056058545 -0.116651185 -0.08292112 -0.094020516
000100 ad d5 40 be 5f 13 8b be 46 d0 2f 3f af cf 1e be
       -0.18831511 -0.27163216 0.68677175 -0.15508913
000110 d0 bf 0d bd 20 1f 7b bd ff 13 b7 be 98 56 f6 bc
       -0.034606755 -0.06130898 -0.35757443 -0.030070588
000120 9d d6 9d be 74 a7 96 be a6 be 43 be bd 73 91 be
       -0.308278 -0.29424632 -0.19115695 -0.28408614
000130 ca 6d 19 be 7e 46 94 be 5e d5 d1 be bd 83 5c bd
       -0.14983287 -0.2896003 -0.409831 -0.053836573
000140 b3 84 ac be 1d 66 3d 3a de c1 77 be f5 e9 a4 be
       -0.3369499 0.0007224994 -0.24195048 -0.32209745
000150 37 98 51 be ea 28 93 be a2 e6 8a be 0b 94 94 bc
       -0.20468222 -0.28742152 -0.27129084 -0.018136999
000160 40 42 c7 be 26 da 6e be 58 cf 91 be e3 04 dd be
       -0.38917732 -0.23325405 -0.28478503 -0.4316779
000170 1b 2e 59 be c6 01 af be 62 33 ce be 21 5a ac be
       -0.21208994 -0.3418104 -0.40273577 -0.33662513
000180 4d 89 8a be 6d 2c c3 be 74 6a ba bd 88 75 9b be
       -0.27057877 -0.38119832 -0.091023356 -0.30363107
000190 2c 7b 27 bc 89 8e a5 be de 48 a2 bd 54 e5 2b 3d
       -0.010222238 -0.32335308 -0.079240546 0.04196675
0001a0 d0 48 16 be bb f4 8e bd 9b 93 31 bd ef 86 9e be
       -0.14676213 -0.069802724 -0.04335366 -0.3096232
0001b0 15 96 42 be 8c 6d a1 be fa 0e 51 b9 4f 30 9d 3d
       -0.19002564 -0.3152889 -0.00019937372 0.0767523
0001c0 2e ec 9a be b4 9d 9d be ad 6c 0f be 72 db d3 be
       -0.30258316 -0.3078438 -0.140063 -0.4137836
0001d0 77 4b 44 be fc a9 94 be 2a 06 b1 be a4 6b 8f be
       -0.19169413 -0.29035938 -0.34575015 -0.2801181
0001e0 f8 13 89 be 8e cb 82 be a7 88 5b be 30 c3 fc bc
       -0.26773047 -0.25545925 -0.21438847 -0.030854791
0001f0 81 23 49 bd a6 80 c2 be 6c 0d 0f 3b 85 d0 54 be
       -0.049106125 -0.37988776 0.0021828068 -0.20782669
000200 3e 48 83 be 1e 3e bf be 3c 80 16 be 54 48 e4 be
       -0.25641054 -0.3735208 -0.14697355 -0.44586432
000210 29 f4 dc be c2 41 3a bd c9 d7 33 be e8 6d b5 be
       -0.4315503 -0.045472868 -0.17562784 -0.35435414
000220 e5 98 a6 bc 49 5c ba bd 54 a1 d3 bd 67 d4 5c 3d
       -0.020336578 -0.09099633 -0.10333505 0.0539135
000230 81 e5 82 be 2f 63 a8 3c 39 47 f2 be 94 0d 8a be
       -0.25565723 0.020555107 -0.47319964 -0.26963484
000240 d2 74 08 be c0 cc e4 be 30 d5 42 bd be 52 d6 bd
       -0.13325813 -0.44687462 -0.047566593 -0.104650006
000250 32 fb 4f 3d bb 1b 58 3d a1 38 bb be 6b 4d 91 be
       0.050776668 0.05276082 -0.36566642 -0.28379378
000260 ba b2 a1 bd 81 58 af be 1e 8c 3d be 72 a7 39 be
       -0.078954175 -0.3424721 -0.18510482 -0.18130282
000270 e9 21 ca be ee 07 85 be ce 82 c1 3c 15 4c eb be
       -0.39478996 -0.25982612 0.023621943 -0.45956483
000280 50 3e e9 bc 15 82 b3 3d ec bf ce bd aa 9a 9e bc
       -0.028472096 0.087650456 -0.100952 -0.019360859
000290 f6 95 6f be 1e 84 54 be d4 4f fc 3e 84 94 92 be
       -0.2339705 -0.20753524 0.49279654 -0.28628933
0002a0 9c 1a a2 3b 5a c3 31 bd 79 dc 8b be d5 4e 4a bd
       0.0049470197 -0.043399192 -0.27316645 -0.049391586
0002b0 73 81 07 be 8f d8 a9 be 6b c1 05 be 25 0a d3 be
       -0.13232975 -0.33173034 -0.13062064 -0.41218677
0002c0 9c d2 59 be 8e 64 c7 be b6 62 9a be 36 e4 e0 bb
       -0.21271747 -0.38943905 -0.30153435 -0.0068631424
0002d0 aa d1 a3 be 5f 7a 22 bd 6b 7f 71 be 64 13 ba be
       -0.31995898 -0.039667483 -0.23583762 -0.3634292
0002e0 bb 53 75 be ed 93 b6 be c6 ba d1 be af c2 94 3d
       -0.23957722 -0.35659733 -0.4096281 0.072636954
0002f0 50 fa db be a1 6c 54 be 87 38 e6 be e6 e5 cd be
       -0.4296441 -0.20744564 -0.44965002 -0.4021446
000300 e9 90 0b be 48 d0 5a bc 06 3c b6 be f0 54 52 be
       -0.13629498 -0.013355322 -0.3559267 -0.20540214
000310 0e 13 06 be 4d bc 73 bd db 50 fd bd 0a a3 8e be
       -0.13093206 -0.05950575 -0.123689376 -0.27858764
000320 56 3a 89 3d a6 7c 6f be cf c1 d5 bb ff f3 1c 3b
       0.0670058 -0.23387393 -0.006523348 0.0023949144
000330 d9 ce 89 be de d8 03 bc 32 e6 1a be 77 a9 5d be
       -0.26915625 -0.008047311 -0.15126875 -0.21646677
000340 71 f8 80 bd 00 42 aa be 31 82 55 3c a8 24 2a 3c
       -0.062973864 -0.3325348 0.013031528 0.010384716
000350 b7 ee 8a be 76 49 9d be fa 78 7d be 90 8c 51 be
       -0.2713525 -0.3072011 -0.2475318 -0.20463777
000360 30 cb f2 be 55 96 00 be 0f 26 0c be d7 16 8d be
       -0.47420645 -0.12557347 -0.13686393 -0.27556488
000370 5d 69 a1 be 01 a8 cb be 6a 37 ae be e8 6f 9e 3d
       -0.31525698 -0.39776614 -0.34026653 0.07736188
000380 54 84 f6 bd a1 8f 8a be 65 72 a2 3d 93 30 5f be
       -0.12036958 -0.27062705 0.07931975 -0.21795873
000390 ba 1d a5 be bd 81 a9 be 5a 31 8b be c9 df 9a be
       -0.32249242 -0.33106795 -0.2718609 -0.3024886
0003a0 99 7b 94 be 46 15 0d bd 62 f1 de bd f6 d0 ae be
       -0.29000548 -0.034444116 -0.10885884 -0.341438
0003b0 e6 a1 87 be a0 ac 40 be fb b3 d6 be 83 98 6a 3c
       -0.26490706 -0.18815851 -0.4193419 0.014318588
0003c0 5e 1e b1 be ed 50 25 3d e7 23 d8 be e2 30 a8 be
       -0.3459348 0.04036038 -0.4221489 -0.32849795
0003d0 a6 1a 8c be 57 bb 5a be 63 dc a6 3d e2 2e 20 bd
       -0.2736408 -0.21360527 0.08147504 -0.03910721
0003e0 2e 7c 0f bd f0 e9 65 bc 1e d4 b2 be 69 12 00 be
       -0.035030536 -0.014032826 -0.34927458 -0.12507023
0003f0 f0 37 91 3d 15 71 81 be 4f 18 a7 be f0 b7 d0 be
       0.07090747 -0.25281587 -0.32635733 -0.40765333

ff_2.bias f4 [11]
000000 e9 06 a7 bd fd be d4 3d b0 5e 62 3c 4d 6e 90 bd
       -0.08155615 0.103879906 0.013816521 -0.07052288
000010 64 90 f3 bd 2b 0c 40 3d 09 e6 cc bc 65 fc 23 bd
       -0.11892775 0.046886604 -0.025012033 -0.040035624
000020 62 51 1e be 21 e4 0b be fe ad d7 bd
       -0.15460733 -0.13661243 -0.10531233
